experiment/cost_saving_increase_data/net80.pth (torch, 48270 bytes, 25 tensors)

weight f4 [20, 10]
000000 5f bf 05 3e 8c 21 14 3d 28 10 f8 bc 00 f5 eb 3e
       0.13061284 0.036164805 -0.030281141 0.46085358
000010 b3 7f c8 be 7c e0 a7 3e 39 dc 05 bd 03 16 f9 bd
       -0.39159927 0.32788455 -0.032680724 -0.121624015
000020 77 19 04 3f 94 94 80 bb e4 d0 87 bd 0d d3 91 be
       0.51601356 -0.003923962 -0.066316396 -0.2848133
000030 27 62 ed 3d a8 77 32 be 3a 2e 13 3e 20 fe ca be
       0.11590987 -0.17428458 0.14373103 -0.39647007
000040 c3 cc d2 bd d6 f3 44 3f 71 08 73 3f 4a 90 f5 b9
       -0.102929614 0.76934564 0.94934756 -0.00046837545
000050 d5 1e 10 be 01 93 af 3d d3 4f 1b 3e 62 c9 35 be
       -0.14074261 0.08572961 0.1516717 -0.17752603
000060 4f 45 98 bd 32 d8 97 3e f7 6c ae 3e 51 80 ae 3e
       -0.074350946 0.2965713 0.3406751 0.34082273
000070 c3 b7 a8 bd f0 54 53 3e f5 16 ad be 68 45 8d 3d
       -0.08238175 0.2063787 -0.33806577 0.06898004
000080 58 92 58 3e ea 1c 9d be bc 4d 22 bf 00 c9 71 bd
       0.21149576 -0.30686122 -0.63399863 -0.05902958
000090 0d 90 39 3f 3b 8d b2 3e 57 5a 1b 3d 9c dc 4a b9
       0.7248543 0.34873375 0.03792795 -0.00019346405
0000a0 8b 7a ae 3d c8 40 6d 3d d8 d3 c6 3e e7 76 d9 bd
       0.08519467 0.05792311 0.388335 -0.10618382
0000b0 f0 ae a5 3e f9 8f 93 3d 71 88 65 bf 12 45 f1 3d
       0.3236003 0.07205195 -0.8966132 0.11780752
0000c0 9b f4 ef bc 13 eb 3a b9 dd d2 0a be 07 79 8a 3d
       -0.029291442 -0.00017825914 -0.13557 0.067613654
0000d0 5d 78 06 3e 6a 75 7c 3e dc 34 7e 3e 1e 5d a1 3e
       0.13131852 0.24654165 0.24824852 0.31516355
0000e0 5b 7c 59 bd f9 bd 8d bf ad 8b 0d 3f 8f 4a 02 3a
       -0.05309711 -1.10736 0.55291253 0.00049702165
0000f0 9a 39 91 be f7 41 e1 3c 75 23 c1 3e b3 1f 2e 3f
       -0.2836426 0.027497275 0.37722364 0.6801712
000100 5d 86 23 bd a4 de 9f bd 80 92 e2 bd 7a ef c0 3e
       -0.03992306 -0.07806137 -0.11063099 0.37682706
000110 16 63 37 be e1 79 b7 bc 7b 53 27 be b8 b7 7c be
       -0.17908892 -0.022396984 -0.16340439 -0.24679458
000120 1c c0 61 3e 55 62 db be f3 a0 68 bd f8 cc 06 3d
       0.2204594 -0.4284846 -0.056794118 0.032910317
000130 8a 64 16 3e b7 21 09 3f d3 11 a6 be d8 24 57 3c
       0.1468679 0.5356707 -0.32435474 0.013131343
000140 46 b3 ce bc cf 58 bc be 29 16 d0 bd fd 22 58 3e
       -0.025231969 -0.36786506 -0.10160477 0.21107097
000150 a3 83 49 3e 1b 9e 8c be f4 65 fc bd c7 2d 15 3e
       0.19679122 -0.27464375 -0.123241335 0.14568244
000160 8c ff 6e be 2b 85 06 3e 08 a7 58 bd df c2 31 bf
       -0.23339671 0.13136737 -0.05289367 -0.69437975
000170 8f 3d 9b 3d 77 2a 4c 3f ac 1e 10 be fa 84 49 bf
       0.07580101 0.79752296 -0.140742 -0.7871853
000180 17 5f 1e 3e c3 d6 f3 3e b1 4a 02 3d 84 91 b5 b9
       0.15465961 0.47624788 0.031809513 -0.00034631428
000190 ff 1a 67 3e 65 36 97 bd 66 b9 8e 3e 0a 35 07 3f
       0.22568892 -0.07383422 0.27875823 0.52815306
0001a0 42 8c d7 bd 03 54 b2 be a1 04 e8 bd f9 80 2c be
       -0.10524799 -0.3482972 -0.11329008 -0.16846074
0001b0 97 6a 89 3e aa 21 c8 3c 92 d9 aa 3e fe 72 df 3e
       0.26839134 0.024430115 0.33369118 0.4364242
0001c0 33 73 75 bd 25 82 f2 be 0f 1b f9 bc 9f 59 00 3f
       -0.059924316 -0.47364917 -0.03040841 0.5013675
0001d0 69 6e 7c 3d 0a 4b 35 bf db a1 93 bc c8 4b 5f bc
       0.061628733 -0.70817626 -0.018021515 -0.0136289075
0001e0 dc b0 37 be 08 de 37 3d 3c b5 fb 3e a5 da 80 be
       -0.1793856 0.04488948 0.49161708 -0.25166813
0001f0 09 fb 99 3e 3d 95 57 be 25 4a ed be 4b ce 84 bd
       0.30074337 -0.21053024 -0.4634563 -0.0648466
000200 ce c3 33 3e 6f 6c 28 3d ea 28 ac bd 77 87 a5 be
       0.17555162 0.041119035 -0.08406241 -0.32329914
000210 4f 6c d7 3d 7e 9f 0f 3f c7 17 e4 3d 3a 8b 97 3d
       0.10518705 0.5610274 0.11137348 0.07399602
000220 af 93 aa 3e ef dc 8b 3e 6e ea e4 be eb 93 58 bd
       0.333158 0.27316996 -0.44710106 -0.05287544
000230 b8 52 70 3e 92 b8 7e bd 5c 6d b4 be 13 d5 2a 3f
       0.23469055 -0.06218774 -0.35239685 0.66731375
000240 5c 77 b9 3d 1b a9 0c be f1 92 87 3e 1b 5d 55 bc
       0.09055969 -0.13736384 0.26479295 -0.013022686
000250 5a ef 24 3e 27 6c 10 3c c3 c5 d0 bd b0 37 c5 3e
       0.1610693 0.008814848 -0.1019397 0.3851905
000260 48 1f ce 3d 68 17 bb bd 56 55 89 be c6 2d 5f be
       0.1006456 -0.09135324 -0.2682292 -0.21794805
000270 9e 58 81 bd 90 de 14 be fc 4f d7 3e 48 fe ef bc
       -0.063157305 -0.14538026 0.4205321 -0.029296055
000280 e9 a3 c3 be 05 c7 ba 3d ce 03 17 3f 49 1c 45 3f
       -0.3821099 0.09119991 0.5899018 0.76996285
000290 bd 2d cf bd 08 44 6b 3d db 6b 2f be 91 b2 44 bf
       -0.10116146 0.057437927 -0.17130987 -0.7683497
0002a0 ae d1 27 be 71 0d f1 39 92 09 f2 3b 8e 2f af 3e
       -0.1638858 0.00045977117 0.007386395 0.3421597
0002b0 f2 f2 c0 3d 36 e2 40 3d 89 92 a3 3e d4 b4 09 3f
       0.09421338 0.04709073 0.31947735 0.53791547
0002c0 b5 33 d4 3e 39 a4 38 3d fe e3 31 be c1 7f 00 3e
       0.414457 0.04507849 -0.17372128 0.12548734
0002d0 e0 e2 55 3d 45 75 cd 3e 35 a7 44 be 09 51 11 3e
       0.052218318 0.40128532 -0.1920441 0.14191069
0002e0 78 da cb 3c a7 53 d6 3e 7c 36 d1 be f0 6e 83 be
       0.024884447 0.41860697 -0.4086188 -0.25670576
0002f0 1d 4c e1 3d 14 81 5a bd da d5 2e 3d 22 ba bb bd
       0.110008456 -0.053345755 0.042684413 -0.091663614
000300 8d 2a 0a 3e c6 e7 e7 be 96 48 e3 3e a5 1e 60 be
       0.13492794 -0.45294017 0.44391316 -0.2188669
000310 86 ea 60 3e 7f 87 29 3f eb ee 86 3e b1 b4 88 bc
       0.21964464 0.66222376 0.26354155 -0.016687723

bias f4 [20]
000000 33 36 8d 3d 24 00 87 be 62 a9 8a 3e dc 82 df bd
       0.06895103 -0.26367295 0.27082354 -0.10913631
000010 93 22 5d 3e 0f 4e 8f bc c4 ed d6 bc 95 16 71 bc
       0.2159522 -0.017493276 -0.026236422 -0.014714857
000020 35 36 5d 3d e1 0c 2e 3e 65 1c 45 3d 1e 95 ca 3d
       0.054006774 0.169971 0.048122782 0.09891723
000030 02 0d 92 be 3d bd 6a 3e c6 9b 8b 3e dd 27 88 3e
       -0.2852555 0.22923751 0.27267283 0.26592913
000040 5f 98 7d 3e 7c 34 69 be ba 9b f0 bd a7 c1 8e 3e
       0.24765156 -0.22773927 -0.117484525 0.2788212

weight f4 [40, 20]
000000 3b 4b 0d be 73 9b 28 3e 16 95 77 be e5 1e 9d be
       -0.1379823 0.16465549 -0.24177966 -0.30687633
000010 6c 99 6b 3e a9 3e cf bd c8 4a 7a bd 2c db c6 3d
       0.23007745 -0.10119373 -0.061106473 0.097097725
000020 5f 0c 22 3e a6 f9 49 3e 28 09 ff bc e1 c7 43 be
       0.15825032 0.1972414 -0.031132296 -0.19119217
000030 0b 71 75 3e 11 05 63 bd c3 01 a6 bd 86 9f c7 3d
       0.23968904 -0.055424754 -0.08105805 0.097472236
000040 e0 a0 e4 bd 87 d8 e1 3d 29 3a 2c 3e f3 d8 2a be
       -0.11163497 0.110276274 0.16819061 -0.16684322
000050 19 ed 38 be 53 5a 86 be 63 8e 74 3d e6 2b a2 bd
       -0.18059196 -0.26240787 0.059706103 -0.07918529
000060 34 3d 8a bd 04 da d6 bc db 0d 12 be e9 28 56 be
       -0.06749955 -0.026227005 -0.14263098 -0.20914043
000070 63 02 38 be 48 43 a3 3e 73 2b 1a 3e ab 66 3a bd
       -0.1796966 0.3188727 0.15055637 -0.045508068
000080 70 9e db bc b0 82 1a 3e 64 18 89 bc 38 d4 72 bd
       -0.026808947 0.15088916 -0.016735263 -0.05928442
000090 3f 7b b4 3d 2a f5 c7 3d e6 c8 40 3d 5f d7 e6 bc
       0.0881257 0.09763558 0.04706659 -0.028178869
0000a0 fa 82 c2 3e d4 4c 5b 3e db 25 fb bd e2 58 42 3e
       0.37990552 0.21416026 -0.1226308 0.18979219
0000b0 a8 18 3c 3d 0c 6d e4 bd 97 d1 a4 3d 7e a5 3b be
       0.04592195 -0.111536115 0.080477886 -0.18324849
0000c0 66 92 53 3e 49 ac 23 be f5 ed 24 3e 8e 4b 8a 3d
       0.20661315 -0.1598369 0.16106398 0.06752692
0000d0 b2 3c 88 3d 47 c6 2e 3e 29 bf 6c bd 5c 8c cc bd
       0.06652202 0.17067824 -0.057799492 -0.09987709
0000e0 20 c9 62 be ea 5f c6 3b b7 bb 07 be 65 6d e3 3c
       -0.22147036 0.0060539143 -0.13255201 0.027762124
0000f0 3b b1 78 bc 55 08 cf 3d 3d bf 5b 3e 52 60 02 be
       -0.015178974 0.10109011 0.2145967 -0.12732056
000100 76 ab 88 3d 57 8d cf bc 32 bc 3f be f7 97 37 3e
       0.066733286 -0.02533595 -0.18724135 0.17929064
000110 af e8 8b 3d 40 53 21 bd 0f f9 f3 bd d8 d2 0e be
       0.0683149 -0.039386034 -0.119127385 -0.13947618
000120 23 cb 3c 3e df f5 da 3d 0e 49 8e 3d 17 bd 1b be
       0.18436866 0.106914274 0.06947528 -0.15208851
000130 cc 9c bc bc f7 7c df 3d e9 b3 d3 bd f6 86 a7 be
       -0.023023985 0.10912507 -0.103370495 -0.32720155
000140 eb fe 03 3d 1e ba a3 be 93 21 ad 3c 68 d9 40 3e
       0.03222553 -0.31977934 0.021134173 0.18832934
000150 10 14 f9 bd e9 18 29 be 89 29 1f be e9 d4 01 3e
       -0.1216203 -0.16513409 -0.15543188 0.12678875
000160 86 e0 f5 bb 85 99 4c 3e e1 91 67 bd ca 63 96 bc
       -0.007503572 0.19980438 -0.056535605 -0.01835813
000170 fc 2c 82 be 74 36 56 bd 1d ff 73 3d 5a 13 18 be
       -0.25424945 -0.052298024 0.059569467 -0.14851132
000180 bb 43 c5 bd 8f 74 9e 3d c0 4e 2d 3e 5b e2 f9 3d
       -0.09632059 0.077370755 0.16924572 0.12201377
000190 3a 39 7a bc c2 eb f9 3d 39 ef 94 bd cf 8c 96 be
       -0.015272433 0.1220317 -0.072721906 -0.29404303
0001a0 f2 f6 57 3e fe 79 7f bd 6b da dc bd bd f9 93 3c
       0.21090296 -0.0623722 -0.107838474 0.01806342
0001b0 db 0d 25 be c6 f6 92 bd 1a 63 b6 3d 98 39 82 3d
       -0.16118567 -0.071759745 0.08905621 0.063586414
0001c0 ae eb 47 3e e0 8f 20 be 96 2c f9 3b ab 5a 21 bd
       0.19523498 -0.15679884 0.007604192 -0.03939311
0001d0 62 69 d2 bd fe 6b 18 be 58 1c b9 3d c1 c0 28 3d
       -0.102740064 -0.14884946 0.09038609 0.04119945
0001e0 b8 22 93 3c 13 ff 61 be 64 48 4d be 36 b7 39 3e
       0.017960891 -0.2206996 -0.20047146 0.18136296
0001f0 87 a6 87 3d 2d 8b cf bd e1 30 a7 bd 35 6a 3d be
       0.066235594 -0.101339675 -0.0816362 -0.18497546
000200 b4 42 80 be 23 2e f2 bd 25 8f 9f 3e a1 c2 d8 3c
       -0.2505089 -0.11825206 0.31163898 0.026459994
000210 04 96 f4 bd c9 f9 b5 bd 50 db 80 3e 65 4d 01 3e
       -0.11942676 -0.08885533 0.25167322 0.1262718
000220 c9 bf 35 3e 0f f8 4a 3d 5b 7e cc 3d 7d b8 f5 3d
       0.17748941 0.049552973 0.09985038 0.11998079
000230 7e 6d f8 bd e1 c4 7b be 94 59 e6 3d 35 ea 96 bd
       -0.12130259 -0.24586822 0.112475544 -0.0736889
000240 01 61 4a bc 44 50 80 bd 4f 23 4e be ea 4a 0b be
       -0.012352229 -0.062653095 -0.20130657 -0.13602796
000250 fc 46 30 3d 05 c7 4c be 37 ef 5c be e0 65 de 3d
       0.043036446 -0.19997795 -0.21575628 0.10859275
000260 d4 15 42 bc a7 4f 58 bd 35 31 9f 3d 52 73 91 3d
       -0.011846025 -0.052810337 0.07773057 0.07102074
000270 1c 11 53 be 9c 9e 3e 3e c1 ba 04 3e 50 1c 2d 3d
       -0.20611995 0.18615192 0.12961866 0.04226333
000280 b0 e0 39 bd bb 66 8a be f6 a3 2c 3e 7f 6d c6 bc
       -0.045380294 -0.27031502 0.16859421 -0.024222134
000290 c4 66 09 be b1 4f 4f 3e 52 d2 06 3d 8f d1 51 3d
       -0.13418108 0.20245244 0.03291542 0.05122524
0002a0 32 78 63 bd 1a 0b 52 bd 0c e1 cb 3d 71 1d 62 3e
       -0.05553455 -0.05128012 0.09955034 0.22081544
0002b0 0c 4b 2e 3c d0 cc a5 bd 39 00 91 3e 8b d9 ca bc
       0.01063801 -0.080957055 0.28320482 -0.024761936
0002c0 10 cd 0c 3e f3 32 aa 3d 22 68 42 3e 85 4f de 3d
       0.137501 0.08310499 0.18985036 0.10855011
0002d0 99 f9 ca bd 9c ae bd 3e 42 df 9b bc 6c 16 37 3c
       -0.09910888 0.3704728 -0.019027356 0.011174779
0002e0 f9 4c 0b bd 95 e7 7f be 67 30 85 bd 14 e5 35 be
       -0.034008954 -0.24990685 -0.06503373 -0.17763168
0002f0 cf e1 d2 3d f0 fe 08 bc 9b 78 aa bd 0b 3b c5 3d
       0.10296976 -0.008361563 -0.08323785 0.09630402
000300 a8 83 85 3d 62 2f e7 bd 90 4b 80 3d 93 a9 fd 3d
       0.06519252 -0.112883344 0.062644124 0.12385859
000310 24 ef 89 bd 8a 4f 26 3e 83 2e e8 bd 56 a4 74 bd
       -0.067350656 0.16241279 -0.113369964 -0.059727035
000320 e7 d2 c4 be bd dc 81 3e a6 f4 a2 3d 6d cb 0d 3d
       -0.38442156 0.25363722 0.07956819 0.03461783
000330 26 58 10 bc fc 07 88 3d 17 49 2f bd 71 48 1c bd
       -0.008810079 0.06642148 -0.042794313 -0.038155023
000340 1c 22 b5 3d c1 6f 0d 3c f6 ce 29 bc 05 99 e3 bd
       0.088443965 0.008632601 -0.010364285 -0.111131705
000350 d9 e9 84 3d ae f3 94 3d b6 ca f6 3d aa f8 85 be
       0.064899154 0.07273041 0.12050383 -0.26166278
000360 53 29 2e bd c8 cc aa 3d 1e 09 ad 3d 09 0c 3d 3e
       -0.04251988 0.0833984 0.084490046 0.18461622
000370 3f 19 50 be f0 1b c9 3e af eb 58 be f3 bb ab 3d
       -0.2032213 0.39279127 -0.21183656 0.08385458
000380 01 67 22 3d 76 71 c2 3d 0e 6a 09 be 66 18 15 3e
       0.039649013 0.09494297 -0.13419363 0.14560089
000390 09 f9 e2 bd 79 3e d1 bd e5 e9 cb 3d b0 c3 f2 3d
       -0.11082656 -0.10216994 0.09956721 0.11853731
0003a0 f9 d8 66 3e f1 e8 1d bd 15 86 2d 3e 35 23 21 3e
       0.22543706 -0.03855223 0.1694568 0.15736087
0003b0 69 43 e0 bd 8b e8 41 be b5 3a fc 3d 76 52 f4 bd
       -0.109503575 -0.18936364 0.12315885 -0.11929791
0003c0 67 df 1a 3e 66 08 09 be 10 84 90 3e 14 ea ee 3d
       0.15124284 -0.1338211 0.28225756 0.116657406
0003d0 f0 7a ac bd 53 f4 d1 bb 90 96 6e be 49 71 18 3c
       -0.08421886 -0.0064072995 -0.23299623 0.009304353
0003e0 93 af a3 3d d6 5f f1 bd f3 1b 17 bd 5e 5b 89 be
       0.079924725 -0.117858574 -0.03689189 -0.2682752
0003f0 46 1a 7f 3e be 09 97 3c 89 5e 8d 3e 94 a1 0c 3e
       0.24912366 0.018437263 0.27611187 0.13733512

bias f4 [40]
000000 e7 76 2a be f1 67 6c 3c 6e ce 37 bd be 32 1d be
       -0.1664692 0.014429078 -0.0448746 -0.15351388
000010 06 78 3e 3d 70 8c 2f be 78 8b 0b 3d 07 dd c6 bd
       0.046501182 -0.17143416 0.034068555 -0.09710126
000020 7c a2 73 be fb 92 b6 bc 27 8a 97 bd cd 49 30 bd
       -0.23792452 -0.022286883 -0.07399397 -0.043039132
000030 11 0a fe 3d 3b 45 00 3e 01 21 6e 3d c2 13 bf bd
       0.12404264 0.1252641 0.058136944 -0.093299404
000040 21 fb 07 be da 90 1d 3d b6 ed 1f be 7a 1d 85 bd
       -0.13279392 0.03846822 -0.15618023 -0.06499763
000050 69 b3 3a be 8a 24 66 3e 9d 4a 04 be c9 de 55 3e
       -0.18232502 0.22474876 -0.12919088 0.20885767
000060 7a e0 c9 3d 46 79 66 3e 39 2d 17 3e 77 ab c5 3c
       0.09857269 0.225072 0.14763345 0.024129612
000070 2f de 40 3d a8 07 6f bd 79 d5 cf bd 17 1e 1c be
       0.04708689 -0.05835691 -0.101481386 -0.15245853
000080 f8 f7 7f 3e 16 7c 85 3d 9b 98 31 3e 86 ca d9 bc
       0.24996936 0.06517808 0.1734337 -0.026585829
000090 bf 11 e7 3c b1 75 d4 bd 42 d6 75 bd 5b f8 20 3e
       0.028206704 -0.1037401 -0.060018785 0.1571974

weight f4 [80, 40]
000000 d6 59 40 be 25 32 d2 3d a1 95 c2 bd d5 00 60 bd
       -0.1878427 0.102634706 -0.09501196 -0.054688293
000010 4d 20 31 be 85 51 01 be d0 a4 00 3e db 6c 9e bd
       -0.17297478 -0.12628753 0.12562871 -0.07735606
000020 11 bf 1b be 7b 05 0a be 21 a1 25 3e d9 1c 9c 3d
       -0.15209605 -0.13478653 0.16174747 0.0762269
000030 b0 f4 d6 bd b6 93 84 bd be f8 bd 3d 72 64 cd bd
       -0.10495889 -0.06473486 0.092759594 -0.10028924
000040 74 b1 93 bd ff 3e bc 3d 28 ad ec bd ca 65 ee 3d
       -0.07211581 0.09191703 -0.115564644 0.116405085
000050 2e 11 34 3d 2c a7 d4 3c f0 fd 06 3e 52 40 90 3d
       0.043961696 0.02595862 0.13182807 0.07043518
000060 8e 89 13 3e c1 13 75 bd 1b 35 1a be 25 84 22 be
       0.14407942 -0.059833292 -0.1505932 -0.15870722
000070 52 0f de bd a9 55 2e 3e 69 2b fc 3d 1b 68 a7 3d
       -0.10842766 0.17024864 0.12312967 0.081741534
000080 2d 1c 38 be 4a 9f 05 be 2a a5 94 3d 83 51 17 bd
       -0.17979498 -0.13049045 0.07258065 -0.03694297
000090 42 70 85 be 9d 4e fd bd f0 63 99 3d d7 95 ba 3d
       -0.26062208 -0.1236851 0.07489765 0.09110611
0000a0 27 a2 01 3e c7 c2 c7 bb 5a d5 0e be 8d 44 ac 3c
       0.12659512 -0.0060962173 -0.13948575 0.021028781
0000b0 8e 15 d9 bd ee f9 fe 3d ba 55 a3 3c 38 1c 02 3e
       -0.10599814 0.12450014 0.019938339 0.12706077
0000c0 2e 7f c2 3d 87 20 d0 3d f9 7d 3d be 7d e4 88 bc
       0.09496914 0.10162454 -0.18505086 -0.016710514
0000d0 50 47 bb bd 9d c8 74 bd d0 2b 1c 3c f0 e0 96 3d
       -0.09144461 -0.059761632 0.00953193 0.07367122
0000e0 3c 6c 86 bd 22 61 de bd 10 2f f1 bc 2a 97 25 3c
       -0.06563613 -0.1085837 -0.029441386 0.010106841
0000f0 6a 11 f7 3d cb 5d 08 3e 3e 84 ca 3d 5b 7e 3b 3c
       0.12063868 0.13317029 0.098885044 0.0114437
000100 b1 bb 9f bc ef 2a 4c bd ef 02 c4 bd 95 e4 30 3d
       -0.019498678 -0.049845632 -0.09570872 0.043186743
000110 e2 93 cc bd c1 6a 5a 3d 97 a8 a4 3d 21 2d 46 3e
       -0.09989144 0.053324465 0.080399685 0.19353153
000120 a5 0e b9 bd 46 d5 2c 3e b9 4b c8 bd a9 89 2e bd
       -0.09035996 0.16878232 -0.09780068 -0.04261175
000130 ef 3c 0a 3e a4 f0 0d 3f 20 b9 10 be 96 c3 0b bd
       0.13499807 0.55445313 -0.1413312 -0.034122072
000140 8f 0a 14 be 54 05 44 3e 48 9b eb 3d ff 17 12 bc
       -0.14457153 0.19142658 0.11504227 -0.008916854
000150 d6 34 9a 3b 58 e7 7d bd b6 02 06 be 3d 11 06 be
       0.0047060056 -0.061988205 -0.13086972 -0.13092513
000160 fe 6c 72 3b e7 2e 28 be 69 f4 c1 bd d1 7a 80 3c
       0.0036991234 -0.16424142 -0.09470446 0.015683563
000170 d2 35 92 bd 82 16 48 bd b3 d1 0d 3e 8a b5 e6 bc
       -0.07139172 -0.04884959 0.13849525 -0.028162736
000180 df 48 f3 3d 6e 4a 10 bd 7c e7 f1 bd 0f f3 31 bd
       0.118791334 -0.03522723 -0.1181173 -0.04344469
000190 eb 44 22 be b5 1d f0 3d 87 f4 0c 3e 03 7e f7 bd
       -0.15846603 0.11724416 0.13765155 -0.12084582
0001a0 b3 a1 55 bd 71 8e 03 3e 6a ad 4b bd 52 c0 a4 3d
       -0.05215616 0.12847306 -0.049725927 0.08044495
0001b0 2c b8 07 be ee 22 1b be 49 2f 22 bd 05 14 b6 bd
       -0.1325385 -0.15150043 -0.039595876 -0.08890537
0001c0 e1 5d d1 3d 08 86 8b bd 82 30 6c bc 24 84 a0 bd
       0.10222984 -0.06812674 -0.014415862 -0.07837704
0001d0 a0 27 8f 3d f5 49 74 3e c7 64 c4 3b 98 80 27 be
       0.0698998 0.23856337 0.005993459 -0.16357648
0001e0 8d f5 08 be 99 3d 1b 3e bf a8 44 3d f5 78 91 3d
       -0.1337492 0.15160216 0.04801249 0.07103149
0001f0 82 b5 0d 3d 77 88 5c 3d f2 55 07 3d 1b 2c 7d 3d
       0.034596927 0.05384108 0.03304095 0.06180964
000200 37 4a 69 3d 81 78 a1 3d db fd 2a 3e e9 78 39 3e
       0.056955542 0.078843124 0.166984 0.1811253
000210 7e 95 0e 3c 91 70 bf 3c 19 68 f9 3d c9 5d 85 3e
       0.008702634 0.023369106 0.12178058 0.26048115
000220 95 ca de bc 50 e2 43 bd 40 3e 25 bd 72 fe 18 3d
       -0.027196208 -0.04782325 -0.04034257 0.037352033
000230 df 48 7e 3d 48 04 47 3e 4d 44 c1 3d 21 eb 36 3d
       0.062081214 0.19435227 0.094368555 0.04465783
000240 b1 52 7d 3d 80 29 7d be 5c d0 66 bd 2b ee fa 3c
       0.06184644 -0.24722862 -0.05635105 0.030631145
000250 78 39 cc bd 06 df 02 be d1 61 bb 3d 01 ae d3 3c
       -0.09971899 -0.12780389 0.091495164 0.025839807
000260 88 cb 1b be bb 11 8a 3b 28 5a 9b 3d a2 65 10 3e
       -0.1521436 0.0042135394 0.07585555 0.1410127
000270 01 a2 29 3e 87 e1 45 bc 70 1e c9 3d 7a 30 87 be
       0.16565706 -0.012077696 0.098202586 -0.26404172
000280 55 92 3b 3d b2 e1 73 be 55 2c 3d 3c af f5 db 3d
       0.04579385 -0.23816565 0.011546214 0.1074022
000290 62 b2 e2 3c 73 24 b0 bd 68 f7 b4 bd 20 f7 a4 bd
       0.02767295 -0.08600702 -0.088362515 -0.08054948
0002a0 fc 3e 06 be 72 f0 ea bd 18 49 de 3d 24 34 61 3d
       -0.13109964 -0.114716426 0.10853785 0.054981366
0002b0 85 09 e6 3d df b2 93 3d bf cc 86 3e 43 92 92 bc
       0.112322845 0.07211851 0.26328084 -0.017892009
0002c0 ee ea 3b bd 12 a0 02 bd 8d 35 97 bc 44 be 89 bd
       -0.045878343 -0.031890936 -0.018458152 -0.067257434
0002d0 5a 8c 82 bc 2a 66 33 bd 54 c3 03 3e ee 40 fd bd
       -0.015936065 -0.043798603 0.1286748 -0.123659
0002e0 b9 b8 80 bd 74 32 0d be 17 fc b0 3d 52 e1 e3 3d
       -0.06285233 -0.13788778 0.08641832 0.11126961
0002f0 73 e1 4b be 37 82 a7 bd 51 dc 0f 3e 25 af 83 3d
       -0.19910221 -0.081791334 0.14048888 0.064298905
000300 6d da 89 3d 85 fe 9e bd b9 97 45 3e 66 d0 1f 3e
       0.067311145 -0.077633895 0.19296159 0.15606841
000310 50 71 a4 3b 36 08 94 3d ae 0e 17 3d e7 09 90 bc
       0.0050183907 0.072281286 0.036879234 -0.017582847
000320 92 98 81 bb 07 80 a1 bc b2 5d b9 bd 5e 1a 7a bd
       -0.0039549554 -0.019714369 -0.09051074 -0.061060302
000330 79 76 69 3e 86 ee 21 3d ac da 34 3e a9 d1 17 3e
       0.227991 0.039534114 0.17661542 0.14826073
000340 ca 97 a8 bd 45 59 2f bd 70 d4 29 bd 61 de dd 3c
       -0.082320765 -0.042809743 -0.04146236 0.027083578
000350 bd c9 0f 3e b8 43 ab 3d 9e 2d bb be c8 d2 66 bd
       0.14041801 0.08362526 -0.3655824 -0.05635336
000360 4b 82 fc bc 36 35 f0 bd 07 4e a4 3d 2c a4 ce bd
       -0.030823847 -0.11728899 0.08022695 -0.10089907
000370 6f ae ee 3d 74 9f 29 3d 72 2c e1 bc 5b 6f de bc
       0.11654364 0.041411832 -0.027487013 -0.027152708
000380 83 30 f7 3d 44 1d 8b bc a4 63 1b 3e 7b 49 73 3d
       0.120698 -0.016981728 0.15174729 0.05939625
000390 8b e0 7b bc 5c 5d 65 3c 3d 28 d1 3d b1 36 b9 3c
       -0.015373359 0.013999309 0.10212753 0.022609087
0003a0 5e d4 b5 3d 99 8a 24 3d 9a d0 d7 3c d2 a7 35 3d
       0.088783965 0.04017124 0.026344586 0.0443495
0003b0 6d da 9f bd 9e 61 37 3d 05 aa 0d 3e 82 8e d6 3c
       -0.07805333 0.04477083 0.13834389 0.026191
0003c0 44 4b 73 be 8a 3d 05 3d 0d a7 d6 3d f1 10 15 3d
       -0.2375918 0.03252939 0.10481081 0.03639311
0003d0 8b da 22 bd a3 2e ca bd 33 e6 c4 3c 90 fe 1c 3d
       -0.0397592 -0.098721765 0.024035549 0.038328707
0003e0 52 c5 8f 3d c4 fb 2b bd 3c 1e b9 bd e9 b5 81 be
       0.07020058 -0.04198815 -0.0903897 -0.253341
0003f0 c5 65 c8 3d fd 8e 01 3c 92 93 2a 3e 04 1b 92 bd
       0.09785036 0.007907626 0.16657856 -0.07134059

bias f4 [80]
000000 9e 87 98 bd b6 91 6b 3d eb 12 56 bd ca 66 1d be
       -0.07447742 0.057512008 -0.052264135 -0.15371242
000010 cf 8e 4b 3d fa a1 15 bd 05 c3 fe 3c b3 f7 4f bd
       0.04969674 -0.036531426 0.031098852 -0.050773334
000020 25 f6 cc bc 48 b1 bc 3d 04 c2 0f 3e a8 58 1f 3e
       -0.025019715 0.09213501 0.14038855 0.15561163
000030 aa 17 56 bd c1 7a 34 be 8d f6 72 bd e9 0b 2c be
       -0.05226866 -0.17624952 -0.05931716 -0.16801418
000040 b8 f8 a3 3c c7 5b 3d be 53 ee 9f 3c 95 90 11 3e
       0.02001606 -0.18492042 0.019522822 0.1421531
000050 3f 5d e4 3c ee 9d 9f 3c 3a c4 12 3e 86 4c 9f bd
       0.027876494 0.019484486 0.14332667 -0.077782676
000060 54 bd 37 be ca 43 f4 3d 37 97 f6 3d 35 c8 39 3c
       -0.17943317 0.11926992 0.12040561 0.011339237
000070 b1 a1 0b be 3e 6f d0 3d ad ab 19 3d 74 a6 ac bd
       -0.13635899 0.10177468 0.03751724 -0.08430186
000080 6e e8 b4 bd 8c 8d 84 3c 5a 33 8a 3d 26 73 4d bc
       -0.08833395 0.016180776 0.06748076 -0.012539661
000090 3f 68 11 3e 9b 8f c8 3d 2d 1d 4b 3d 6b 11 e6 bd
       0.14199923 0.097930156 0.04958837 -0.11233791
0000a0 38 2b 68 3d 27 45 36 bd 1c 48 a7 3c 63 56 de bd
       0.05668184 -0.044499543 0.020420127 -0.10856321
0000b0 c3 dc b8 bd 3f d0 4e bd 86 b2 17 be d8 af 2a 3d
       -0.09026482 -0.050491568 -0.14814195 0.041671604
0000c0 1b cb 88 bd 35 15 72 bd bc 27 76 3d fe ce ae 3c
       -0.06679364 -0.059102256 0.060096487 0.021338936
0000d0 8d 81 77 3c 17 bc f4 3d ff 71 dc bd e9 8f 2d 3c
       0.015106571 0.11949938 -0.107639305 0.010593393
0000e0 dc 06 a4 3c 40 0d 44 be 97 fb 38 3d 2c 72 ec bd
       0.020022802 -0.1914568 0.04516181 -0.11545214
0000f0 1d f2 66 3c a9 af 53 bd 7e 5b 14 be f5 25 e6 3d
       0.01409581 -0.051681194 -0.14488026 0.112377085
000100 1f c2 11 3e 00 5e 45 3d fa 77 a7 bd 77 69 3e 3e
       0.14234208 0.04818535 -0.081771806 0.18594919
000110 44 54 68 bd 1d 43 c5 bd 41 56 57 bd ff 1d d2 3c
       -0.056720987 -0.096319415 -0.052572493 0.025649069
000120 2c 47 f7 bd e3 bb 4f bd f5 67 25 be 08 a1 05 bd
       -0.12074122 -0.050716292 -0.16152938 -0.032624274
000130 d7 fd 17 be d7 92 df bd e7 47 20 be c5 7c bb bd
       -0.14842926 -0.10916679 -0.15652429 -0.09154657

weight f4 [40, 80]
000000 f7 28 75 3d 71 63 04 bc 6d 71 25 be 37 33 7e 3d
       0.05985352 -0.008080349 -0.1615655 0.06206056
000010 76 17 8c bb 2b 14 3f 3c 6c 4d 9f bd 65 c7 7d bd
       -0.0042752577 0.011662523 -0.07778439 -0.061957736
000020 59 83 ca bd 80 3f d9 3c 6d d3 e3 bd 31 7a c1 3b
       -0.09888334 0.026519537 -0.11124311 0.005904459
000030 d9 7c 44 3e 9a c4 2d be 84 9f cc bc 6e 98 cb 3b
       0.1918825 -0.16969529 -0.024978407 0.0062132394
000040 e2 96 a6 bd 5e f2 87 bd d0 1a ad bc a9 90 ee 3d
       -0.08134247 -0.06638025 -0.02113095 0.116486855
000050 d6 42 6c bd 77 a1 29 bd dd 54 29 be 70 bf 92 bc
       -0.057680927 -0.04141375 -0.16536279 -0.01791355
000060 43 69 a2 3d 53 e4 56 3d 19 72 b5 bd 13 65 39 3d
       0.07930233 0.05246384 -0.08859653 0.045262408
000070 68 f6 3b 3d 61 aa d3 bc b0 76 70 bc 04 65 66 bc
       0.04588929 -0.025838079 -0.014676735 -0.01406217
000080 3f 04 94 3c 53 d8 7d 3d c7 88 6a bd c3 51 b8 bb
       0.018068431 0.06197388 -0.057259347 -0.005624981
000090 8a a6 82 3d 0c 09 e8 3d 2c 63 5a bd 96 66 08 bb
       0.06379421 0.113298506 -0.053317234 -0.00208131
0000a0 29 26 b0 bd 3c 26 85 bc 2f 8e cb 3d b6 5f 47 bd
       -0.086010285 -0.016253583 0.09939229 -0.04867526
0000b0 50 26 8f 3c d0 36 cf 3d 2b 36 cd 3d 6d 39 b1 3d
       0.017474324 0.101178765 0.10020097 0.08653531
0000c0 ef 3c 96 be 62 4b 2c 3d ea 89 80 3d 23 e0 4a bd
       -0.29343364 0.04206408 0.06276305 -0.04953016
0000d0 ca 6a 73 bb bc f0 84 3e 87 b1 01 be c6 3b 8a bd
       -0.0037142509 0.25964916 -0.12665378 -0.06749682
0000e0 ee e6 46 be 8e c6 6a 3d 4c ec 32 3d 3d 96 da bd
       -0.1942403 0.057318263 0.04368238 -0.10673187
0000f0 d2 2a 12 3e 24 aa 90 bd b5 af ee 3c 54 41 60 bd
       0.14274147 -0.07063702 0.029136518 -0.0547498
000100 82 36 4c 3e 83 cc 12 be b8 27 8b bc 40 e9 a2 3c
       0.19942668 -0.14335828 -0.016986713 0.019886613
000110 19 11 00 3e e6 b0 84 3c 71 7e ba bc 9c 6c 8e be
       0.12506522 0.016197633 -0.02276537 -0.27817237
000120 fd 03 0e 3e f6 57 e3 bd a9 62 64 bc 31 0e 22 3d
       0.13868709 -0.111007616 -0.013939538 0.039564315
000130 aa 7e 05 be 3a 08 bc bc c3 86 09 bc 98 f7 aa 3d
       -0.130366 -0.022953141 -0.008393946 0.08348006
000140 e9 df 08 bd 88 80 a0 bd ba 11 66 3d 59 65 f4 bd
       -0.033416662 -0.078370154 0.05616925 -0.11933393
000150 88 67 9e 3c b6 bf 7e 3d 3a 4a fa bd 89 08 5b bd
       0.019336477 0.06219455 -0.12221189 -0.053474937
000160 4d b5 0c 3d 52 2c b4 3d a0 50 e9 3d 08 1f 17 bd
       0.03435259 0.08797516 0.11392331 -0.036894828
000170 0b c9 f9 bc b7 11 04 3e 55 24 9f 3d 5a f3 89 3d
       -0.030491373 0.12897383 0.07770602 0.06735869
000180 0b b3 f5 bd 28 a8 2c be ca 2f 04 3e b6 2d cd 3c
       -0.1199704 -0.16861022 0.12908855 0.02504621
000190 63 c2 e6 bd be 20 40 3d 6e 71 d3 3b 70 79 89 3d
       -0.11267545 0.046906225 0.006452731 0.067126155
0001a0 5b 13 51 bd 3d 5b ff 3d b0 66 a2 bd 1c b5 51 3e
       -0.05104385 0.12468574 -0.07929742 0.20479244
0001b0 e7 05 03 bc 5a 2e 66 bc 57 d0 be 3c dc a4 f0 bd
       -0.007997013 -0.014049137 0.023292704 -0.117501944
0001c0 71 85 15 3d 9e 7c 23 3d 20 65 f0 bc 4c 61 95 3d
       0.036504213 0.039913766 -0.029345095 0.072939485
0001d0 86 35 43 bd 0d 9d de bd 18 22 82 be ec 94 bd bd
       -0.047658466 -0.10869799 -0.25416636 -0.0925692
0001e0 36 d7 fd 3d ce bc 27 3d 43 f8 09 be ba 17 a6 bd
       0.12394564 0.040951543 -0.1347361 -0.08109994
0001f0 aa 7b 77 bd 52 09 b8 3b 97 91 d8 3d 0a b0 b9 38
       -0.06042067 0.0056163454 0.10574644 8.854277e-05
000200 c3 df a5 bd 8b cc d8 3d b5 db 9b 3d b9 c3 de bd
       -0.0809932 0.105858885 0.07610265 -0.10877175
000210 d6 b6 65 bd 76 42 18 bd 08 c9 f6 bc d6 96 1e 3d
       -0.05608257 -0.037172757 -0.030125156 0.038718067
000220 ac bd 2a 3d 11 2b b2 bd ef f1 6a 3d 99 34 0a be
       0.04168479 -0.086996205 0.057359632 -0.13496627
000230 cc 58 f4 bd 6c 9a 4e bd 5b 56 3f bd 00 c1 fe bd
       -0.11930999 -0.050440237 -0.046713214 -0.124391556
000240 2f 4d 4b bd c0 48 68 3d 88 73 e1 bd 6a 34 f5 bd
       -0.049634155 0.056710005 -0.11008364 -0.11972888
000250 71 1f ba 3c 21 03 d4 3b 17 60 ae 3c 95 c9 ee ba
       0.02272007 0.0064700996 0.021286054 -0.0018218035
000260 34 a1 2f bd 08 98 ac be 9e 11 26 be 77 65 16 3d
       -0.042878345 -0.3370974 -0.16217658 0.03671786
000270 b0 78 03 be b8 43 4d be 6f 17 3d 3e ed 19 b4 bd
       -0.12839007 -0.20045364 0.1846597 -0.087940075
000280 ca 67 86 3d e6 79 d7 bc 74 b7 38 3c a9 13 90 3d
       0.06562765 -0.026303243 0.011274207 0.07035
000290 d7 f8 f9 3c 67 8b 38 bd 69 73 8a 3d 3e 76 fd 3c
       0.030514164 -0.04505482 0.06760294 0.030940171
0002a0 f4 cb c7 3d 64 d9 68 bd 67 9a 13 3e d2 07 96 3d
       0.09755698 -0.056847945 0.14414369 0.0732571
0002b0 e1 ec 53 3c 19 1c dc bb 70 e3 ba bd 30 83 04 be
       0.012934894 -0.0067172167 -0.091254115 -0.12940669
0002c0 59 57 b6 bc 0c 13 d8 bc 4f 9c a2 bd a0 92 2f 3d
       -0.022258447 -0.02637627 -0.0793997 0.042864442
0002d0 73 66 98 bd c1 34 b9 bd 46 55 f0 bd 77 31 cb 3c
       -0.07441416 -0.09043265 -0.117350146 0.02480386
0002e0 04 ff f6 bd dc 78 36 bd cb 41 28 be 36 69 fd 3c
       -0.12060359 -0.044548854 -0.16431348 0.030933958
0002f0 02 68 89 3d d7 f9 ec 3d 26 5f ad 3d 46 02 8a bb
       0.06709291 0.11571091 0.08465414 -0.004211697
000300 d3 b5 e9 3c 9d d6 6a bd 2e 6e 8b 3b 24 74 b9 3d
       0.028529083 -0.057333577 0.004255078 0.09055355
000310 4e 01 b7 bd 1d 46 4b 3d cf 93 91 3d 96 8c b7 bd
       -0.08935796 0.049627412 0.071082704 -0.089623615
000320 fd 2e f4 3d 87 26 08 3e 33 0d 94 3d 29 d6 ec bc
       0.11923025 0.13295947 0.0722908 -0.028910713
000330 f6 89 41 3d 9c 88 2d 3d 38 49 6c be 73 ef cd 3d
       0.04725071 0.04236661 -0.23074806 0.10055437
000340 87 c7 a8 3d 71 33 99 3d f6 b6 ad 3d 2a 93 12 be
       0.08241182 0.07480515 0.08482163 -0.14313951
000350 f1 60 0c 3e 64 94 64 3e e3 27 26 3e b6 a4 9f 3d
       0.13708855 0.22322232 0.16226153 0.07795088
000360 ad bb bc 3d 8d 48 f7 bc 11 7c ac bb a0 51 20 bd
       0.09215484 -0.030185962 -0.0052638133 -0.039140344
000370 99 38 a3 3b f3 9f 50 3e e5 06 47 3d 07 36 5b 3c
       0.004981112 0.20373516 0.04859056 0.01337958
000380 41 4e 3c be 94 8d 46 3d 27 eb 10 be 29 66 13 3b
       -0.18389226 0.048474863 -0.14152204 0.0022491312
000390 4b 95 34 3d a6 d5 56 bd 15 b4 9a 3c 50 c2 de 3c
       0.04408769 -0.052449845 0.018884698 0.027192265
0003a0 b0 de 00 3e c9 08 0f be a7 75 c0 bd e1 d4 c1 3b
       0.12584949 -0.13968195 -0.093974404 0.0059152697
0003b0 f7 90 4c bc 61 09 30 be bd 0b 14 3d 26 5b bb bd
       -0.012485734 -0.17191078 0.036144007 -0.091482446
0003c0 7c 26 b3 3d 9e 79 f8 3d cc a6 a9 bb 76 5b 04 3d
       0.08747575 0.12132572 -0.0051773544 0.032313786
0003d0 df 4f 52 be 80 fc 46 3e 41 f7 3a bd a9 3b 4e be
       -0.20538281 0.19432259 -0.045645956 -0.20139946
0003e0 46 94 e5 3d 44 de f3 3d b8 89 8a 3c 86 66 4e 3c
       0.112099215 0.11907628 0.016911373 0.012597686
0003f0 10 33 5d 3d 3c 39 0b be 6b a3 37 bd df 37 db 3d
       0.054003775 -0.13596052 -0.044833582 0.10704016

bias f4 [40]
000000 5b e7 cc bd db c2 9a 3c c3 93 32 bd 71 19 04 bd
       -0.10005065 0.018891742 -0.043597948 -0.032250825
000010 54 f8 9e bc a5 94 ca 3d 06 97 4f bd f1 f5 d7 bc
       -0.019405521 0.09891633 -0.050681137 -0.026362391
000020 3a a3 ba bd 37 70 48 3d 80 a4 91 bd 16 5a 98 bd
       -0.09113164 0.04893514 -0.07111454 -0.074390575
000030 3f a9 9f 3d d9 06 54 bd d1 07 1d 3e ff cb fe 3c
       0.07795953 -0.051764343 0.15335013 0.031103132
000040 2f 85 3f 3c 3a 9b 85 3d 74 fb a7 bc 18 40 d8 3d
       0.011689468 0.06523748 -0.020505644 0.105591
000050 33 ff 85 3c 22 48 95 bd d3 df 52 3c 69 41 a9 bd
       0.01635704 -0.07289149 0.012870747 -0.08264429
000060 5f 7e e6 3b c0 9b c3 bd 4c ff 33 be bd 7c 12 3d
       0.0070341076 -0.09551191 -0.17577857 0.03576349
000070 d4 df be bd f2 27 78 3d 4c 94 68 3d 5c 9d be 3c
       -0.093200356 0.06058497 0.056782052 0.023268394
000080 24 f5 9f 3d 43 b4 08 bd 44 28 a1 bc 28 eb 81 bc
       0.07810429 -0.033375036 -0.01967252 -0.015859202
000090 d6 1e 85 3d e0 d8 0d 3e b1 eb 3c 3d 6d 86 bb 3d
       0.06500022 0.13852262 0.04612321 0.09156499

weight f4 [20, 40]
000000 a4 be a2 bd 9f 2d 21 3e f7 c4 1a 3e ef b9 a3 3c
       -0.07946518 0.1574006 0.15114199 0.019986121
000010 f3 39 97 bd 49 7c b9 3d 25 65 06 be b5 97 d2 3d
       -0.073841 0.09056909 -0.13124521 0.10282842
000020 fa a9 dc bc f0 7c e0 bd 3b 45 30 bc 3e c4 2e bc
       -0.02693652 -0.1096133 -0.010758693 -0.010666905
000030 06 f0 b3 bd c7 26 34 3e 43 6f 65 3e 1e 00 50 3e
       -0.08786015 0.17592917 0.22405724 0.20312545
000040 aa fc 29 be 5a e4 1f be 7d 97 2f be bc b2 70 bd
       -0.1660029 -0.15614453 -0.17147632 -0.058764204
000050 70 12 4a 3d a8 47 28 bd b5 98 ac bd 62 ba 48 3d
       0.04933399 -0.04108396 -0.08427564 0.049005874
000060 00 c0 80 3a fc 45 07 bd 5b ab 28 bb 0b 50 b5 bd
       0.0009822845 -0.033025727 -0.0025736901 -0.088531576
000070 6b ea de bd c0 72 f2 bd e0 16 87 bc 9a b6 e3 3d
       -0.108845554 -0.11838293 -0.0164904 0.11118813
000080 ad 56 8c bd 97 56 4e bd 97 06 74 be d7 84 5c 3c
       -0.068524696 -0.050375547 -0.23830639 0.013459406
000090 37 a7 6f 3d a7 0a 2c be f1 ec 76 3c 5f 4e 32 be
       0.058509078 -0.16800939 0.01507114 -0.17412709
0000a0 9a bb 0f be 35 99 77 be 52 10 53 bd a8 8a 45 be
       -0.14036408 -0.24179538 -0.051529236 -0.19291174
0000b0 1f eb dc 3c e7 dc 7f bd a5 45 1e 3d 7d 05 64 3b
       0.026967583 -0.06246653 0.038640637 0.003479331
0000c0 ea 5a 53 bd 8e f1 a7 bd 1d 43 4f be fa a9 6b 3d
       -0.051600374 -0.0820037 -0.20240445 0.05753515
0000d0 da 7e 4a 3d 7a bf 16 bd e4 f6 99 be 9e fd 1e bd
       0.04943738 -0.0368037 -0.30071175 -0.038816087
0000e0 4d 0b 8f bd c7 c2 2b bd 83 73 32 3e 18 46 68 3d
       -0.06984577 -0.0419338 0.17426877 0.05670747
0000f0 ae c7 e6 3d 21 50 ef 3d d1 7a 8a bd 05 6e 93 bd
       0.11268555 0.11685205 -0.067617066 -0.07198719
000100 2b 38 fc bd e0 c5 0d 3d 3d ed 2b bd 45 a2 6e 3d
       -0.12315401 0.034612536 -0.041974295 0.05826022
000110 b2 61 e6 bb a5 90 90 3c 3a df b0 3d a9 18 06 3c
       -0.007030689 0.017647097 0.08636327 0.00818459
000120 e3 71 ad bd d1 12 98 3d 35 59 2d bd f3 c8 c2 bd
       -0.08468988 0.07425464 -0.042321403 -0.09510984
000130 ef 68 d8 3d d5 9a 00 3e 53 73 21 3c 99 98 53 3d
       0.105668895 0.12559064 0.009854156 0.0516592
000140 12 53 8a bc f5 84 9a be aa d1 82 3d 6e 1b 99 3b
       -0.016885314 -0.30179563 0.063876465 0.0046724593
000150 cc 0c f2 bd c9 ce e3 3d 71 37 c1 bc 16 24 cc bd
       -0.11818847 0.111234255 -0.023586007 -0.0996782
000160 26 53 bb bc 3a 80 b1 bd bb 9d 58 bd 9a 20 4f bc
       -0.022866797 -0.086670354 -0.0528848 -0.01264205
000170 63 ee a3 bd 4e e9 e8 bd f5 0d b7 be a1 bd ce 3c
       -0.08004453 -0.11372624 -0.35752836 0.025236906
000180 93 94 70 bd 6e f0 62 3d cc 87 28 3e e1 d9 0a be
       -0.05873544 0.055405073 0.16458052 -0.13559677
000190 69 ee 12 3e 8b 9a 82 3d c8 96 00 3e af 94 fa bd
       0.14348759 0.06377133 0.12557518 -0.122353904
0001a0 ee 8b ea 3d 77 10 1b 3d 61 42 da bd 53 ec 81 3d
       0.11452471 0.0378575 -0.10657192 0.063439034
0001b0 f7 45 f6 3c 85 0a 2c 3e 54 0d ef bd 9b 07 fa 3d
       0.030062659 0.16800888 -0.11672464 0.12208482
0001c0 ec 23 18 3d c8 68 59 3d 30 28 24 bd 69 48 8b bd
       0.037143633 0.053078443 -0.04007739 -0.068009205
0001d0 85 b1 e9 3d 23 c6 3e 3e 0a 19 f2 bd b2 7a 12 bd
       0.11410812 0.1863027 -0.11821182 -0.035761543
0001e0 10 9f 99 bc 2f d2 27 be 28 ed 58 3d fe e1 b9 bc
       -0.018752605 -0.16388772 0.052960545 -0.02269077
0001f0 81 57 c9 bd c6 70 3e 3d 83 f1 13 be 56 17 00 3e
       -0.09831143 0.046494268 -0.14447598 0.12508902
000200 4a fd f2 bd 42 43 01 be e4 fb 81 bd 61 1e 17 be
       -0.11864717 -0.12623313 -0.063468724 -0.14757682
000210 7b 61 ca 3d 98 70 d6 bd f6 2a 36 be c8 ec 2a bd
       0.09881874 -0.10470694 -0.17789826 -0.04172972
000220 69 50 06 3e ed 37 26 bc e4 82 08 3e cd b1 19 be
       0.13116612 -0.01014517 0.13331181 -0.15009232
000230 31 7a 52 3d 7c c1 95 bc 8f 05 d7 bd c7 fd 9a bd
       0.051386062 -0.018280737 -0.10499107 -0.075679354
000240 7d cc 9f bb 7c 19 e6 3d 88 26 1b be ab 2d 1b bd
       -0.004876672 0.112353295 -0.15151417 -0.03788535
000250 4f bf e7 3d ae 82 12 be 19 d9 81 3d 54 88 21 3d
       0.11315786 -0.14307663 0.06340236 0.039436653
000260 2d fb 1f 3d 73 79 0d be 32 f1 04 3d c3 bd 1e 3e
       0.0390579 -0.1381586 0.032456584 0.15502076
000270 46 86 a8 3d d9 32 91 3e b9 4f 34 3d 68 c7 b5 3d
       0.082287356 0.28359106 0.044021342 0.08875924
000280 ea 11 f3 3d d2 17 03 3e 29 3f 19 3c aa f5 21 3e
       0.11868651 0.12802055 0.009353437 0.1581637
000290 f1 0e 4a be e2 b2 a9 bd bf 42 2f be 42 9e 2e bb
       -0.19732262 -0.08286072 -0.17115305 -0.0026644622
0002a0 0c 9c f3 3d 7c 60 d4 3d b7 59 df 3c f0 11 ad bc
       0.11894998 0.103699654 0.027264459 -0.021126717
0002b0 13 ee 1b be 69 58 e7 3d f7 7d b4 3d 6c ac bf 3d
       -0.15227537 0.1129616 0.088130884 0.09359059
0002c0 99 04 27 be d8 d2 09 3d e5 55 f3 bd 36 bc 2b be
       -0.16310348 0.033648342 -0.118816175 -0.16771016
0002d0 a3 11 96 bc 5b 69 26 3e f0 fd af bd 5a 1c 08 be
       -0.018318957 0.16251127 -0.085933566 -0.13292065
0002e0 8a 7d bc 3d a3 8b 03 be e4 6c b0 3d 88 5f c4 3c
       0.09203632 -0.12846236 0.08614519 0.023971334
0002f0 65 bb 5d bd 05 ef 19 bd d3 68 53 3c 66 da a5 bd
       -0.05413379 -0.037581462 0.01290341 -0.08098297
000300 44 fd 35 bd a8 ed 1b 3c 43 94 f1 3d fa 60 63 3e
       -0.044430986 0.009517111 0.11795857 0.22204962
000310 1b bb 37 3d d7 e6 42 be c3 dd 49 3d 04 20 0f be
       0.044856172 -0.19033371 0.049283754 -0.13977057
000320 43 ea 9b 3d 5c 27 be 3d 57 9a 91 3d 4c 30 21 3d
       0.07613041 0.09284851 0.07109516 0.0393527
000330 5d 67 8a be f3 39 e4 3d df 76 66 3c fd 6d 04 bd
       -0.27031985 0.111438654 0.014066427 -0.032331455
000340 aa f4 15 3d cc e4 e4 bd e6 44 05 3e 03 71 14 be
       0.036610283 -0.11176452 0.13014564 -0.14496236
000350 19 b5 cd bd 1d ef d7 3d 2c c4 ae 3b a3 7b f1 3b
       -0.10044307 0.10543654 0.005333444 0.007369475
000360 7f 7b 25 be 03 4f 0a be 1d b2 8d bd fa 60 2a be
       -0.16160391 -0.13506703 -0.06918738 -0.16638556
000370 f7 90 66 bd 17 60 03 3d 14 70 4a 3d 01 f2 ca bd
       -0.056290593 0.03207406 0.049423292 -0.0990944
000380 3f db a2 bd 2a c0 47 3d 33 55 4b 3e 27 08 a2 3d
       -0.07951974 0.048767246 0.1985672 0.07911711
000390 cb 64 0c bd 69 23 44 bd a9 13 05 bd 07 e1 56 3d
       -0.03427581 -0.047885332 -0.032489453 0.052460697
0003a0 8b 11 57 be d4 d1 99 3d 02 e3 a6 bc b6 0e 2b ba
       -0.21002786 0.07510725 -0.020371918 -0.00065253244
0003b0 bd ae eb bc f7 d9 74 be bd 00 e2 bd 24 be 3f bc
       -0.028769845 -0.23911272 -0.11035297 -0.011703048
0003c0 a2 5c 63 bd de 7b 20 be 65 3b 9c bd d9 e3 87 bd
       -0.055508263 -0.15672252 -0.07628516 -0.06635255
0003d0 81 ad 13 be b0 f4 17 3d 5b 28 07 be 2c 07 45 3d
       -0.14421655 0.037098587 -0.13198988 0.048102543
0003e0 d3 e9 e4 3d 5d 5d 0e be 35 42 a3 bc 78 f2 03 be
       0.11177411 -0.13902803 -0.01992903 -0.12885463
0003f0 f6 58 f4 3d 4a 8c 0e be 00 35 1a be 20 ab 8a 3d
       0.119310305 -0.13920704 -0.1505928 0.06770921

bias f4 [20]
000000 4a f9 e2 bd b5 99 e0 bd 94 f5 c4 be df b1 3c be
       -0.11082704 -0.10966817 -0.3846861 -0.18427227
000010 6f 9b 2b be 65 d4 1c 3d da a4 96 3e c8 5b a2 be
       -0.16758512 0.038288493 0.29422647 -0.3171065
000020 c4 14 0b be 90 cf a0 3c 7e 60 e7 3d 95 bc 13 bb
       -0.1358214 0.019630224 0.11297701 -0.0022542824
000030 b3 00 b0 bd b0 d9 15 3e 5d 74 91 be 09 c5 67 bd
       -0.08593883 0.14633822 -0.2840909 -0.05658439
000040 99 4c 18 bd a0 7b 58 be e2 1b ca 3d 97 79 a4 3e
       -0.037182424 -0.21140909 0.098685995 0.32124016

weight f4 [20, 20]
000000 32 04 63 3e 52 05 46 3e b4 e7 e0 bd f4 a0 39 3e
       0.22169569 0.19337967 -0.10981694 0.18127805
000010 8c 88 9c bd 98 82 f6 bc 90 da d7 bd 14 d5 37 be
       -0.07643232 -0.030091569 -0.10539734 -0.17952377
000020 74 62 97 bd 74 83 35 bd e2 ea 52 be 14 f5 d6 3d
       -0.07391825 -0.044314817 -0.20597413 0.10495964
000030 18 82 eb bc e8 41 67 3d 4a 91 3c be b0 a3 02 3d
       -0.028748557 0.056459337 -0.18414798 0.031894386
000040 b8 29 7a bd c7 4d 27 be b8 b2 d0 3c 31 1c 44 be
       -0.061074942 -0.16338263 0.025475845 -0.19151379
000050 11 bb 42 be 12 0f 85 bd d6 3c 57 3e 48 9d 55 bd
       -0.19016673 -0.06497015 0.21019301 -0.05215195
000060 c0 91 1e bd a8 d5 34 3d 30 07 60 3e 48 9c 5c 3e
       -0.038713217 0.04414907 0.21877742 0.21543992
000070 a0 0e 95 bd 00 28 05 b9 54 af 4e be f0 07 b0 bd
       -0.0727818 -0.0001269877 -0.2018407 -0.08595264
000080 60 06 13 3e 4a 54 60 be fa 30 33 be 60 85 ba 3d
       0.143579 -0.21907154 -0.17499152 0.091074705
000090 87 3a 4a be 2c 5e bb bd f1 b0 36 be cc 36 4f be
       -0.19748889 -0.09148821 -0.17840935 -0.20235747
0000a0 6c f4 5f bd c8 68 75 3d 24 5b d9 bd 4e 46 d2 bd
       -0.05467646 0.05991438 -0.10613087 -0.10267316
0000b0 e8 c3 55 bd 58 03 ac bd fc 1a 4f 3e e8 7b 21 3d
       -0.052188784 -0.08399075 0.20225137 0.039424807
0000c0 87 96 5c be cc 89 5c be ae 41 59 3e 68 2c 32 3d
       -0.21541797 -0.2153694 0.21216461 0.04349938
0000d0 6a 90 9a bd bc 48 4b 3e bc 8d 18 bd 68 44 ca 3c
       -0.07547076 0.19851965 -0.037244543 0.024690822
0000e0 21 02 64 be 75 d6 51 be 6f 2b 61 be 98 71 a0 3d
       -0.22266437 -0.20491965 -0.21989225 0.07834166
0000f0 b2 10 1a 3e 70 c5 ff bd e8 26 ca 3d ae 38 62 3e
       0.15045431 -0.1248883 0.09870702 0.22091934
000100 f8 04 5e 3d b0 54 14 3c a0 06 66 bd e8 3e 1a 3d
       0.054203957 0.009053394 -0.05615866 0.03765765
000110 1a 96 2e 3e 54 70 12 3e f0 20 5f be 60 7f af 3d
       0.17049447 0.14300662 -0.21789908 0.08569217
000120 5a 32 ec bd 6a e7 32 3e 0e db 20 be de cc 5b be
       -0.11533041 0.1747109 -0.15708563 -0.2146487
000130 e4 d3 eb 3d 80 63 96 bd c0 a8 05 3b f8 cd d1 bc
       0.11515024 -0.07343197 0.0020394772 -0.025610909
000140 a8 e6 b2 3c 04 1e 87 bd 40 aa 1b 3d 7c 22 d2 bd
       0.021838501 -0.06597522 0.03800416 -0.102604836
000150 e0 6a 14 3e 30 e2 b6 3d 00 07 04 be dc 85 3b bd
       0.14493895 0.089298606 -0.12893295 -0.045781955
000160 00 44 c3 b9 e0 c2 8a bb be 7b 33 3e a2 8c ad bd
       -0.00037243962 -0.0042346567 0.17527673 -0.08474089
000170 3c c2 dc 3d 2b b3 22 be 00 24 1c 3a 98 13 14 be
       0.10779235 -0.1588866 0.0005956292 -0.144606
000180 f0 75 21 bd dc d9 a1 3d 04 cf 4e bd e6 9e 3d 3e
       -0.039419115 0.079028815 -0.050490394 0.18517646
000190 8c ca 3f bd 58 23 f0 3d 10 5a a3 bc 48 05 26 be
       -0.046824023 0.11725491 -0.019940406 -0.16212952
0001a0 18 b8 66 3d 58 84 a4 bd 40 1e eb 3d 6c 2c 94 bd
       0.05632791 -0.08033055 0.11480379 -0.07235035
0001b0 49 8f 29 be a4 c0 4c 3e 61 1f 63 be 78 6c 0c 3d
       -0.16558565 0.19995362 -0.22179939 0.03428313
0001c0 c0 56 5d 3e b6 ad 14 be 14 dd 5f be 42 ee 1f 3e
       0.21615124 -0.1451939 -0.21861678 0.15618232
0001d0 f0 2c da 3c e8 e3 19 3e 20 b4 42 3d 40 f2 a1 3b
       0.026632756 0.15028346 0.04753506 0.0049422085
0001e0 74 96 a1 3d 2e b5 62 be 8c d9 c3 3d 2a 1c b9 bd
       0.07890025 -0.22139427 0.09562978 -0.09038575
0001f0 a4 8c 0c be e0 b5 78 3d 80 a3 f2 3b 2c 9f 43 3e
       -0.13725525 0.060720325 0.0074047446 0.19103688
000200 16 b6 02 be 06 89 3f be 58 31 c6 3c 20 e6 a4 3c
       -0.12764773 -0.18704614 0.02419345 0.020129263
000210 f4 13 f2 bd b2 68 a5 bd 9a 3e 37 3e 5c 5e 3b 3e
       -0.11820212 -0.0807661 0.17894974 0.18297714
000220 c2 0d da bd f0 f2 71 bd 6c 47 87 bd ba 95 b5 bd
       -0.10647155 -0.059069574 -0.066054195 -0.08866449
000230 10 a7 63 bc bc c0 87 3d 6f bc fe bd d8 10 25 bd
       -0.013894811 0.06628558 -0.124382846 -0.040299267
000240 82 ee 50 be 46 b4 0f 3e 0c 20 6f bd f0 81 14 be
       -0.20403484 0.14033613 -0.05838017 -0.14502692
000250 bc 7a 59 3e 10 0d 9c 3d 20 f3 fa 3d d0 79 1b 3e
       0.21238226 0.07619679 0.12253404 0.15183187
000260 cc 1e 97 3d 2c 7c f4 bd 05 74 54 be 3e 87 b1 bd
       0.07378921 -0.119377464 -0.20747383 -0.086683735
000270 44 0e 82 bd f4 8b 36 bd 82 6f 00 3e 78 9f 58 be
       -0.06350377 -0.044567063 0.12542537 -0.21154583
000280 70 83 e9 3d 70 a1 fb 3d 68 00 ab 3c 80 1e 37 bd
       0.11402023 0.12286651 0.020874217 -0.04470682
000290 0a 85 00 3e a9 52 16 be 38 7d 85 bc 38 ed 90 3d
       0.1255075 -0.1467997 -0.01629506 0.07076496
0002a0 18 d2 55 3d 50 db 24 3c 20 d4 5f 3d 84 68 38 be
       0.052202314 0.010062054 0.054645658 -0.1800862
0002b0 ae 77 04 3e 72 dd 31 be e4 ea ae 3d 50 6f f4 bc
       0.12936279 -0.17369631 0.085408956 -0.029838234
0002c0 e2 16 d0 bd c0 42 fd 3b c0 63 52 bd 2e da 4f 3e
       -0.101606146 0.0077289045 -0.05136466 0.20298073
0002d0 7c 86 3e 3e 10 1b af 3d 30 e3 1b bc 54 76 38 3e
       0.18605989 0.08550084 -0.009514615 0.18013889
0002e0 73 32 45 be 12 e0 4e 3e c4 0b c4 3d 82 62 1b 3e
       -0.19257526 0.20202664 0.095725566 0.15174296
0002f0 ec a7 52 3e 50 a0 96 3c dc a7 80 3d 74 73 ea 3d
       0.2057187 0.01838699 0.06282017 0.11447802
000300 62 13 1b be 72 3b 60 3e a0 4f 56 bc 18 eb a4 3d
       -0.15144113 0.21897677 -0.0130805075 0.08052653
000310 dd df 14 be 20 dd 4a 3e 48 7f 2c 3d f2 ae 31 be
       -0.14538522 0.19810915 0.042113572 -0.17351893
000320 0e 1f 1c 3e 44 a6 9a 3d 40 f3 de 3d 38 17 ac bc
       0.15246221 0.07551244 0.1088624 -0.021007165
000330 28 bc 23 3d 4c bc 1b be 14 01 46 3e 5c 98 22 3e
       0.03997436 -0.15208548 0.19336349 0.15878433
000340 b0 c2 66 bc a6 68 48 be fe 42 1a be 83 71 df bd
       -0.014084503 -0.1957117 -0.15064618 -0.109103225
000350 4c f0 16 3e b7 55 13 be 0c 11 dc bd ee 7b be bd
       0.14740103 -0.14388166 -0.10745439 -0.093009815
000360 5e 8c 35 be 34 c0 b0 3d 38 2e 99 3d a9 ef 45 be
       -0.17729327 0.0863041 0.07479519 -0.19329704
000370 b0 b2 27 3e c0 76 10 3c 86 8f 08 be a0 37 66 3c
       0.16376758 0.008817375 -0.13336 0.014051348
000380 78 e2 47 3d 34 f1 8a 3d ce 94 03 be 74 a6 61 3e
       0.04879996 0.06784287 -0.12849733 0.22036153
000390 88 cc 33 3e c4 6f 4b 3e 40 f8 31 bc c0 79 4d bb
       0.17558491 0.19866854 -0.01086241 -0.0031353086
0003a0 f8 74 30 be a0 9b 54 3e c8 02 10 bd 7c a7 69 bd
       -0.1723212 0.20762491 -0.035158902 -0.05704449
0003b0 dc 4c 6f bd 84 d2 14 be 18 18 3e be 60 00 f6 bb
       -0.05842291 -0.1453343 -0.18563879 -0.007507369
0003c0 28 82 3c be 0e d4 ef bd 22 14 13 3e a8 07 b2 3d
       -0.18409026 -0.11710368 0.14363149 0.086928666
0003d0 9b 33 28 be ac c9 19 bd 8a 55 be bd cc b6 9c 3d
       -0.16425936 -0.037545845 -0.09293659 0.07652053
0003e0 e8 dd 9b bc a4 2b b9 3d 88 15 65 3d e8 8f 42 3d
       -0.019026712 0.09041527 0.055928737 0.04750052
0003f0 16 12 17 3e d8 82 a8 3d 65 20 61 be 54 10 46 3e
       0.14752993 0.082280815 -0.21985014 0.19342166

bias f4 [20]
000000 74 7c a8 bd 18 1c 5f 3e 9e e0 09 3e 9c b5 d5 3d
       -0.082268625 0.2178806 0.13464591 0.1043503
000010 f2 08 1e be 8c fd 58 3e a4 80 25 3e 40 8e b7 bb
       -0.154331 0.2119047 0.16162354 -0.0056016743
000020 cc dc 36 be d0 37 44 bd 44 ed 19 3e b2 e8 1f be
       -0.17857665 -0.04790479 0.15031916 -0.1561611
000030 90 c8 86 3d d5 2e 15 be c4 93 44 bd 04 1e a0 3d
       0.06581223 -0.14568646 -0.047992483 0.07818225
000040 f8 1f ed 3d c0 1e 00 be 56 0f 20 be f0 11 a7 3c
       0.11578363 -0.1251173 -0.1563085 0.020394295

weight f4 [1, 20]
000000 4b d1 f6 3e 3d 6d 35 bf 0b 3e 1d bf 3d e2 2b bf
       0.48206553 -0.7086981 -0.61422795 -0.6714209
000010 de 36 00 3f 9e d1 28 3f 9b f6 05 bf c5 b3 12 3f
       0.5008372 0.6594485 -0.52329415 0.57305557
000020 89 b0 1b 3f 25 53 0d bf 18 e2 4e 3f 20 d0 1a 3f
       0.60816246 -0.55204993 0.8081374 0.60473824
000030 54 04 29 3f 67 f0 19 bf 71 90 10 3f 99 0e 36 bf
       0.6602223 -0.6013245 0.564704 -0.71116024
000040 42 c6 05 bf 56 0f 15 3f 02 9d 17 bf dd f1 39 bf
       -0.5225564 0.58226526 -0.5922395 -0.7263468

weight f4 [20]
000000 0e dc 30 3f bb 06 4c 3f ef 54 9f 3f 94 0f 5f 3f
       0.69085777 0.7969777 1.2447795 0.87133145
000010 de cf 37 3f 39 2f 3f 3f d6 b0 97 3f 14 c8 7d 3f
       0.71801555 0.7468143 1.1850841 0.9913342
000020 db 21 88 3f 18 59 86 3f ea 7a 8b 3f 46 c8 88 3f
       1.0635332 1.0495939 1.0896885 1.0686119
000030 46 c0 78 3f 51 89 81 3f bd af 7f 3f fe da 75 3f
       0.97168386 1.0120031 0.9987753 0.9603728
000040 2c 49 92 3f 00 87 8b 3f e7 36 82 3f 48 ed ae 3f
       1.142858 1.0900574 1.0173005 1.3666162

bias f4 [20]
000000 fe 30 20 be 57 df 2d bf d3 69 f3 3c 46 d3 12 3d
       -0.15643689 -0.67918915 0.029713547 0.035846017
000010 a7 29 9e bd 6a b7 9a be 16 cb 4c bd 60 bf 26 be
       -0.07722788 -0.3021806 -0.049998365 -0.16283941
000020 ab 84 3c be 16 2c 1b 3f 7a 42 84 bd 6e 11 bb be
       -0.18409984 0.60614145 -0.06457992 -0.36536735
000030 38 2b 5b be 8b ed a7 be e3 4c e7 bd d0 99 05 be
       -0.21403205 -0.32798418 -0.11293962 -0.13046956
000040 a3 79 02 bf fa 4a 0e be f6 df 0c 3e e8 3f 2b bd
       -0.5096685 -0.13895789 0.1375731 -0.041808993

running_mean f4 [20]
000000 28 14 c1 3f 37 48 b0 40 f2 41 9f 42 1e 85 78 3d
       1.5084276 5.5088153 79.6288 0.060673825
000010 05 07 b1 be 72 24 44 40 5d ce 08 c1 eb f5 2f 40
       -0.34575668 3.0647244 -8.550382 2.7493846
000020 5f 6d 41 42 b1 3f 75 3e 16 61 37 41 df cb af c0
       48.356808 0.23950078 11.461203 -5.4936366
000030 b7 a3 80 41 5f 54 ae c1 d3 ae 9a 40 a8 4a 11 c1
       16.079939 -21.791197 4.833841 -9.080727
000040 e0 38 b3 be 59 8c 42 42 ee 26 9d c1 af 16 53 c0
       -0.3500433 48.63706 -19.644009 -3.2982595

running_var f4 [20]
000000 76 9b 40 40 77 6f be 40 89 77 56 45 e3 0e 44 3f
       3.0094886 5.9511065 3431.471 0.76585215
000010 14 21 10 3f 2b e0 22 40 42 71 2b 42 0a a1 60 41
       0.56300473 2.5449321 42.860603 14.039316
000020 de 97 ad 44 6a 9c 6a 3f 35 6c 47 42 14 91 6c 41
       1388.7458 0.9164492 49.85567 14.785419
000030 ac ae 07 43 3c 83 67 43 55 fe e4 40 75 ad 89 42
       135.68231 231.51263 7.1560464 68.83878
000040 dc e3 e7 3f 5e fe 9e 44 79 0f 63 43 53 00 b3 41
       1.8116412 1271.949 227.06044 22.375158

weight f4 [40]
000000 44 76 2d 3f 23 2f a2 3f 13 ca 33 3f ce c0 65 3f
       0.67758584 1.2670635 0.70230216 0.8974732
000010 81 2e 7c 3f 63 91 b0 3f 74 bb 62 3f 07 6b e5 3f
       0.9850846 1.3794369 0.8856728 1.7923287
000020 da 81 51 3f 9d 29 76 3f 5a fe 7f 3f 7a 62 5e 3f
       0.8183876 0.96157247 0.99997485 0.86869013
000030 9f d8 72 3f 4b 27 77 3f f2 cf 85 3f f7 90 78 3f
       0.9486179 0.9654433 1.0454085 0.970962
000040 d4 c1 42 3f e5 64 7f 3f 68 14 80 3f 82 3f 80 3f
       0.7607701 0.9976333 1.0006227 1.0019381
000050 ed da 3a 3f 08 bb 5b 3f 87 16 33 3f 49 89 4e 3f
       0.72990304 0.8583226 0.6995625 0.8067823
000060 7a 7d 46 3f 3c 6c a3 3f 37 6e 61 3f 8b 38 69 3f
       0.7753521 1.2767406 0.880588 0.911019
000070 9f d8 4a 3f fc b3 68 3f d3 3b 4f 3f 45 02 46 3f
       0.7923679 0.90899634 0.8095066 0.77347213
000080 41 11 83 3f 60 6e 20 3f 14 08 2c 3f 29 02 a7 3f
       1.023964 0.6266842 0.67199826 1.3047534
000090 d3 15 42 3f fa f2 92 3f db b4 b7 3f 6b 05 94 3f
       0.7581455 1.14804 1.4352068 1.1564153
