experiment/cost_saving_increase_data/net80.pth (torch, 24879 bytes, 15 tensors)

weight f4 [30, 15]
000000 55 48 0e 3b b6 73 4f be 74 9d f7 bc 63 f0 69 be
       0.0021710594 -0.20258984 -0.030226447 -0.22845607
000010 8f d5 84 bb e4 bb 22 be 6e ff ba 3c d3 d6 14 3f
       -0.0040537785 -0.15891987 0.022826876 0.58140296
000020 07 98 ce 3f 8f 46 38 be 8d b3 16 40 29 4c 0f 3d
       1.6140145 -0.17995666 2.354709 0.03498474
000030 33 0b f7 3f 5b 15 e1 bb 2c 37 eb bf eb ca 16 bd
       1.9300293 -0.006869001 -1.8376212 -0.03681461
000040 6c 62 24 bf c0 93 18 3d e5 17 39 3f ef 3e bf 3c
       -0.6421268 0.03725028 0.72302085 0.023345439
000050 29 9c b8 bd 7a 52 b5 bc 43 7b 1d 3c c0 ea 09 3e
       -0.0901416 -0.022134054 0.009611907 0.13468456
000060 3d 8d 5b 3e b2 b8 78 be c1 3b 2e 3d 57 e3 b1 3e
       0.21440597 -0.24289206 0.042537455 0.3474376
000070 10 7f ab ba 43 fb 03 be 37 bc 19 bc ca b5 7c 3a
       -0.0013084132 -0.12888817 -0.009383253 0.0009640126
000080 ac 6f 1d 3b 89 c9 86 bc 4b 72 06 bf cc 4b f2 bd
       0.002402286 -0.016453521 -0.5251815 -0.11830863
000090 28 18 08 3f c4 d8 0c 3e 24 02 21 3e 3f 1d 8d 3d
       0.5316186 0.13754565 0.15723473 0.06890344
0000a0 da 9c e3 3e 36 46 22 3c aa a3 c0 bd 4e f0 61 b9
       0.44455606 0.009904435 -0.094062164 -0.00021547193
0000b0 a6 58 61 3e 38 26 86 3c d8 b5 25 3e 09 b1 a2 3b
       0.22006473 0.016375646 0.16182649 0.004964952
0000c0 16 a1 5c bc 09 6b 9d bb c6 ce 21 be 8e 15 77 bc
       -0.01346614 -0.0048040194 -0.15801534 -0.015080823
0000d0 ba 19 0b 3d f0 0f 20 be 2b 8e 0c bd 97 ea 86 3e
       0.03396008 -0.1563108 -0.03431527 0.26350853
0000e0 d5 6e b4 3f 31 90 54 c0 d8 8e e0 3c b8 94 06 40
       1.4096323 -3.3213007 0.027411863 2.102827
0000f0 21 4f 64 be 12 ee b0 be 55 6f 55 3e f5 3a 00 3f
       -0.2229581 -0.34556633 0.20843251 0.5008996
000100 5d 5c 34 3c bf 4d 3b be 78 ee 26 3c 53 21 99 3b
       0.011008349 -0.18291377 0.010188691 0.004673162
000110 9d b7 19 3f a1 b0 85 be bd 87 c0 3c 9d 14 87 3f
       0.60045797 -0.2611132 0.023502225 1.0553166
000120 97 42 8e 3f ed 59 0e 3b 62 14 2a c0 c1 ef 8d bd
       1.1114072 0.002172108 -2.657494 -0.06930495
000130 04 19 fb 3e e9 e2 32 3d 6e 6d e8 be 60 1f 3d 3e
       0.49042523 0.04367343 -0.45395988 0.18469
000140 1c 2b b4 be 55 1b 06 be cd 72 8c 3e 94 f9 bf 3e
       -0.3518914 -0.13096364 0.27431336 0.374951
000150 e4 08 4c 3e 2c 3e 5f bf cf dd 65 be a0 e4 c7 3f
       0.19925267 -0.8720424 -0.22447895 1.5616646
000160 ed d0 20 bb 1e 8b aa be 52 c5 95 3c 11 fa 06 bd
       -0.0024538592 -0.33309263 0.018282566 -0.032953326
000170 35 8c 3d bb f5 48 21 3d aa eb a5 3b 13 c8 9b bb
       -0.0028922681 0.039376218 0.0050634937 -0.0047540753
000180 d4 18 03 3c 80 a4 43 3c 80 48 92 bd 6d 29 93 3e
       0.008001525 0.011941075 -0.071427345 0.28742543
000190 c9 9d 55 40 ef c9 8c 40 3a 33 c0 3f 1b 9c 7c 3b
       3.3377554 4.39965 1.5015633 0.0038545195
0001a0 eb 09 47 c0 a1 b1 8d be 06 02 ab 3e 06 51 1b 3c
       -3.1099803 -0.27674583 0.3339998 0.009479767
0001b0 e5 1e ad 3c d0 06 a1 3d 05 90 d8 be 08 86 11 3d
       0.021132896 0.078626275 -0.42297378 0.035528213
0001c0 da 61 a9 3e 80 bf 90 bf e1 d2 5c 3c 1f 24 63 3f
       0.33082467 -1.1308441 0.013478012 0.8872699
0001d0 cb 32 3e 3f e0 a4 b9 bd 6b 05 37 bd ca cb 82 c0
       0.74296254 -0.090646505 -0.0446829 -4.0873766
0001e0 7c 83 3a be b4 7c 8f bb f1 b9 1d 3d 6c 2a 6f 3c
       -0.1821422 -0.0043788794 0.038507406 0.0145975165
0001f0 72 09 cf 3e 8a ac d6 3c 1a fd 8c be 8c 3b d3 bd
       0.40436894 0.02620532 -0.2753685 -0.10314092
000200 b1 51 0a c0 ac 42 11 bf 8b f3 43 3c a4 b3 16 40
       -2.161236 -0.5674236 0.011959921 2.3547144
000210 87 a3 ff 3f 6b 06 c8 3c ae 1d d1 3f f6 cb 98 3e
       1.997178 0.024417123 1.6337183 0.2984311
000220 40 5f ba 3e 27 9f 2d 3d 5a 53 9d bc 8d 3a 8a be
       0.36400795 0.042388108 -0.019204784 -0.26997796
000230 96 4b b4 be 89 f0 4f 3c de c0 ad bb d9 7f 15 3e
       -0.35213917 0.012691625 -0.0053025326 0.14599551
000240 3a d2 8c bf b7 7a ba bd 7d 81 8d bf 30 76 c3 3e
       -1.1001656 -0.09105437 -1.1055142 0.38176107
000250 58 c6 10 3e a5 8d f4 bf fa 39 60 bd 76 d9 60 3e
       0.14138162 -1.9105726 -0.05474279 0.21957955
000260 4c cb 6a bd b9 ad 37 3d 88 16 f7 bc 39 73 03 be
       -0.057322785 0.04484341 -0.03016211 -0.12836923
000270 3a 3c 17 bd b9 05 20 be 6d 5e ef 3f 35 0a a8 bc
       -0.03692267 -0.15627183 1.8700691 -0.02051268
000280 cd b7 0e bf 43 af 38 40 22 c4 53 40 07 f1 bf 3b
       -0.5574921 2.8856971 3.308846 0.00585759
000290 02 a6 11 3c 04 7d e3 bd 55 84 21 be 1d 92 82 3c
       0.008889677 -0.11107829 -0.15773137 0.015938813
0002a0 22 41 ec bd 3f 78 cb bc de 5e c8 be 2a c5 2f 3e
       -0.115358606 -0.024837611 -0.39134878 0.17165056
0002b0 17 f6 ca 3e 94 5b f3 be 79 c7 ba 3e e7 6d ea bd
       0.39640877 -0.47530806 0.3648031 -0.114467435
0002c0 8b f8 8b 3f 63 43 2d 40 58 7c 01 bc af cd 80 3f
       1.0935224 2.707238 -0.007903181 1.006277
0002d0 94 0a 67 bb 93 07 ef bb 5c bd d1 3a 47 6f 9d 3b
       -0.0035254108 -0.007294604 0.0016001868 0.004804525
0002e0 23 44 4b 3c 1a ab 3a 3f ab 48 60 bc af 6a 39 bf
       0.012406382 0.7291733 -0.0136892 -0.7242841
0002f0 ea 9c fa bc 7e 44 83 bc 4e fa b5 bb a5 b0 50 be
       -0.0305924 -0.01602387 -0.0055535203 -0.20379885
000300 2c 81 3a bf 7d ab a4 b9 00 29 7f 3d 06 27 ca be
       -0.7285335 -0.00031408286 0.06229496 -0.39482898
000310 89 3a 17 be 4a df cf 3e 9a 72 38 3e 56 ac d2 bc
       -0.14768423 0.40600044 0.18012467 -0.025716942
000320 93 2a 11 bc 55 ce 0b 3b cc 9c b6 bc 00 5e 3f bd
       -0.008860248 0.00213327 -0.022291563 -0.046720505
000330 4c 51 1b bf f5 89 12 be 48 b7 19 3f 8b 2f 0f c0
       -0.60670924 -0.14310439 0.6004529 -2.2372768
000340 d2 2b 55 3b 57 ab f6 3f 31 ab 74 3c 90 30 55 bd
       0.003252734 1.9271039 0.014933393 -0.052048266
000350 fd e2 39 bd 81 af 91 bc 4d 18 d7 3d 4d b2 02 3f
       -0.04538249 -0.017783882 0.10502682 0.51053315
000360 73 9e 87 3d 60 51 10 bf 08 7b 23 bf 2b 62 d8 3e
       0.06622019 -0.5637417 -0.63859606 0.42262396
000370 98 36 25 bf b9 64 7e 40 00 57 a1 bf d8 d1 df bb
       -0.6453643 3.9748976 -1.2604675 -0.0068304352
000380 c2 d0 7e 40 12 53 51 be 83 a5 0e 3f 1c 5a 1a bd
       3.9814916 -0.20441845 0.557213 -0.03768359
000390 58 bc 80 bc 28 57 bf 3e 87 71 c3 3e d2 63 8f be
       -0.01571481 0.37371182 0.38172552 -0.28005844
0003a0 6c 75 4e 3e 49 ed 3e 3f e5 1c 8e 3e 0c f2 ef be
       0.2016198 0.7458082 0.2775642 -0.46864355
0003b0 6e b4 db bf d9 94 9d 3f fb e6 99 3d 6c fb 4a 3e
       -1.7164438 1.231105 0.07514759 0.19822472
0003c0 11 1d b0 bc f1 c3 33 be 52 57 81 bd 2d 82 10 3c
       -0.021498235 -0.17555214 -0.06315483 0.008820099
0003d0 26 c2 bd 3d 07 26 ad 3e e5 c2 a5 be c2 30 ab be
       0.092655465 0.33818075 -0.32375255 -0.33435637
0003e0 a4 ee 13 3f e1 1d 81 be 5d 4c 91 3f 9c 8d 05 40
       0.5778601 -0.25218108 1.1351429 2.0867682
0003f0 34 98 38 c0 c1 1f 38 3c c4 69 1c 40 d6 86 04 bd
       -2.8842897 0.0112380395 2.4439554 -0.032355152

bias f4 [30]
000000 fc 28 ac 3d 44 dd 0f 3e 3b 3c 81 3e 07 20 02 bd
       0.08406255 0.1404925 0.25241265 -0.031768825
000010 fa cd 76 3e 77 bc 24 3e 23 96 2e be 81 d9 46 be
       0.24102011 0.16087519 -0.1704946 -0.19418909
000020 7e 59 fb 3d 05 cb 15 be 64 80 e8 3d 94 33 50 be
       0.12272929 -0.14628227 0.113526136 -0.20332175
000030 49 40 40 3e 11 79 bd 3d 35 4e e4 bc 9b 19 e1 3d
       0.18774523 0.09251607 -0.027869323 0.10991212
000040 1d e3 2f be 99 4a c5 bd 2d 05 87 bc e9 ae 29 be
       -0.1717648 -0.09633369 -0.01648196 -0.16570629
000050 73 ca dd 3d bd e4 ef bd ff cc 79 3e 21 4a 77 3e
       0.1082963 -0.1171355 0.24394606 0.24149372
000060 ef ef 87 3e 6a c6 53 3e a9 15 81 be b5 79 b3 3d
       0.26550242 0.20681158 -0.25211838 0.08763448
000070 0b a0 e7 3d 96 dd 30 be
       0.11309823 -0.17272028

weight f4 [60, 30]
000000 a2 61 64 3e e9 04 5f be 12 47 af be a9 c6 9e 3d
       0.22302869 -0.21779217 -0.3423391 0.07752735
000010 f0 d0 a0 3e f3 4b 37 be 1d 4f 62 3e f2 5f 08 3e
       0.31409407 -0.17900066 0.22100492 0.1331785
000020 15 53 90 3d c8 89 68 3d 1b c0 05 be ab ec 80 be
       0.07047097 0.056772023 -0.13061564 -0.25180563
000030 91 f9 47 be 9b 5c 2e bd be 84 15 3e 1f bd d1 bd
       -0.19528796 -0.042568784 0.14601418 -0.1024115
000040 42 b3 ed 3d ce 66 a1 3e 83 1f 3c 3e 4e cf 29 be
       0.11606456 0.31523746 0.18371396 -0.16582987
000050 c4 b8 b1 3e 53 48 47 be c2 4b e8 bc 1e 53 e0 bd
       0.34711277 -0.19461183 -0.028356437 -0.10953353
000060 4d 20 fa 3d 87 fb fb 3b b3 b5 aa 3b 33 7b f8 bd
       0.12213192 0.0076898965 0.0052096485 -0.121328734
000070 53 70 04 3f cd 21 4e bd 61 ad a5 bd 96 1a f0 bd
       0.51733893 -0.050325204 -0.0808971 -0.11723821
000080 dc 97 c4 bd 4a 42 bc 3d b6 1b bb bd 5e 6f 95 bd
       -0.095992774 0.09192331 -0.09136145 -0.07296632
000090 0d d4 bb bd 8b 63 bf ba 81 dd 92 bd 95 ae a4 3c
       -0.09171305 -0.001460181 -0.07171155 0.020102778
0000a0 35 86 59 be 1f 3f b9 3c 10 18 f5 3d 09 c1 c3 3e
       -0.21242602 0.022613106 0.1196748 0.38233212
0000b0 f6 ba f2 3d d3 eb ca bd 87 10 38 3e 3b f5 37 bc
       0.11852066 -0.09908261 0.17975055 -0.011227901
0000c0 b5 8c 32 be 5c 7a 2a bd a7 57 72 3e 12 9e 50 bc
       -0.17436488 -0.041620597 0.23666249 -0.012732999
0000d0 f3 c3 a2 3d 8b 08 22 3d 1b 29 1c 3e 2d 9c 23 bf
       0.079475306 0.03955893 0.15250055 -0.6391018
0000e0 62 57 b0 bd c3 d6 0a 3f da 07 fa bd c8 3f b9 3d
       -0.08610417 0.5423395 -0.12208529 0.090453684
0000f0 ea 8c 2f be 86 66 26 bf 6f c5 a4 3c 3b 72 58 ba
       -0.17143598 -0.6500019 0.020113675 -0.0008256768
000100 54 78 15 3e 7b 5f eb 3d 3a 57 e1 3d 14 2c fb 3d
       0.14596683 0.11492821 0.11002965 0.122642666
000110 08 bc dc bd 8f c0 0c 3e 8b 19 e7 3c 2c 1e 32 3d
       -0.107780516 0.1374533 0.028210422 0.043485805
000120 f3 0b bf bc e3 11 df bd 64 a5 1f bd 8e f9 71 bd
       -0.023321128 -0.108920835 -0.03897609 -0.059075885
000130 8d 9d 4e 3d 7e 47 8a 3e c0 61 80 be 47 f8 f0 3c
       0.05044322 0.2700767 -0.25074577 0.029415263
000140 2b 78 ee 3c 77 d4 cd 3c cd 67 38 bd 82 d9 e2 be
       0.029110035 0.025125725 -0.045020867 -0.4430657
000150 a3 44 0b 3e 72 41 a0 bc 40 76 d0 bd c0 63 18 3f
       0.13600402 -0.019562457 -0.101788044 0.59527206
000160 96 d2 30 be 91 8c ac 3d 3f e0 0b 3f 90 4c 81 bd
       -0.17267832 0.084252484 0.5463905 -0.06313431
000170 57 6e a4 bd 05 5f 0f 3d 0a d9 53 3c cb a8 03 bd
       -0.08028858 0.035002727 0.012930164 -0.032143395
000180 ef d7 b8 3e 1b f3 0f bc 4e b0 95 3d f1 10 2c 3c
       0.36102244 -0.008785988 0.07309018 0.010502086
000190 d8 05 8f bd 49 53 a7 3e 84 32 00 3e d2 a4 9d bc
       -0.069835365 0.3268073 0.1251927 -0.019243632
0001a0 46 4b d7 be 55 5a 58 3c c4 3a 55 be 94 2d da be
       -0.42049617 0.013205131 -0.20823199 -0.42612898
0001b0 6f ed e9 be a3 c8 38 3d 4c fb 87 3d ec 21 2f 3e
       -0.4568896 0.045113217 0.06639728 0.17102784
0001c0 c9 96 94 bc 71 b6 8a 3e 05 5d 56 be 32 c6 92 3d
       -0.018138306 0.27092317 -0.20933922 0.07166709
0001d0 93 46 0c be 1c 4b 98 3e e7 58 82 bd 0c 17 65 be
       -0.13698797 0.29744804 -0.06364613 -0.22372073
0001e0 b4 e7 15 bd 90 77 35 3f a6 20 34 be f0 a8 37 3e
       -0.036597922 0.7088556 -0.1759058 0.17935538
0001f0 be 8c af be 69 22 ae be 17 c7 a0 3b f8 ad f7 3c
       -0.34287065 -0.34010628 0.004906546 0.030234322
000200 83 e6 61 be 51 a6 b1 3d 9c 01 e9 bd 86 2f 77 bc
       -0.2206059 0.086743005 -0.1137726 -0.015087014
000210 80 34 3f bc 3c 45 3a 3e 53 35 21 3e 64 23 8c 3b
       -0.011670232 0.18190473 0.15742998 0.00427668
000220 ec f0 6a bc 1d 4e a8 3e de c1 29 3e 46 43 13 be
       -0.014339667 0.32872096 0.1657786 -0.14381132
000230 d2 3f e8 3d e2 b4 9f 3d e8 eb ec 3c 4a 37 7b be
       0.11340298 0.077981725 0.028921083 -0.2453281
000240 73 46 a2 3e d4 fe e9 3d fb 29 25 be 87 35 69 bd
       0.31694373 0.11425558 -0.16129296 -0.056935813
000250 d2 33 9c be b2 84 04 3e ba 3c 72 3e 1c 85 24 3e
       -0.30508286 0.12941244 0.23655978 0.16066402
000260 d7 ea 19 be f0 32 17 bd 02 26 3b 3e 84 52 79 bd
       -0.1503099 -0.036913812 0.18276218 -0.06086971
000270 4b 2f a5 be b1 8a 3f bc 9a 5f 7d bc f8 61 2d bc
       -0.32262644 -0.011690781 -0.015464688 -0.01058244
000280 f3 39 ee 3d b8 c2 32 3c a6 1e da 3c 48 0d 40 3e
       0.11632147 0.010910682 0.026625942 0.18755066
000290 1b ce 96 bd 8b eb e6 3d 62 d3 04 be ad 05 94 3d
       -0.0736353 0.11275395 -0.12971261 0.07227645
0002a0 b8 39 f4 3e 05 eb a5 be aa 10 c9 bc b6 00 53 be
       0.47700286 -0.32405868 -0.024544079 -0.2060574
0002b0 5a bd 9e 3b 04 ca df be d9 15 0e be 51 c6 3e bd
       0.00484435 -0.43708813 -0.13875522 -0.046575848
0002c0 2a ef ab bd 44 a0 f7 3d 1b 58 e9 be 09 6f 54 3d
       -0.08395226 0.12091115 -0.45575032 0.051863704
0002d0 de 59 c9 bd e2 19 0a 3e 49 03 c4 bb d8 cc 16 be
       -0.09831594 0.13486436 -0.005981837 -0.14726579
0002e0 f5 5b 8b be 43 6e 1a be 84 a9 90 bc ca 7e 55 be
       -0.27218595 -0.15081124 -0.017658956 -0.20849147
0002f0 d2 dd 4f 3d 97 a6 14 be 2f 7f 70 3e bf f9 b8 bc
       0.050748654 -0.14516674 0.23486017 -0.022580026
000300 f7 fe a9 bd 0a 10 33 bf 1f 4b 05 3e 38 ea 99 3d
       -0.08300584 -0.6994635 0.13016938 0.07515377
000310 0a 53 d4 bd c7 e3 1b be b1 73 92 bd b8 a8 79 bf
       -0.10367401 -0.15223609 -0.07150973 -0.9752307
000320 62 98 20 be 9e 5b 7c 3e 44 6b 8a 3c 95 36 3a bd
       -0.1568313 0.24644324 0.016896851 -0.04546221
000330 c5 29 43 be 4c da 31 be d7 05 5b 3d 36 32 49 3e
       -0.19058903 -0.1736843 0.053472366 0.1964806
000340 0b c8 4b 3e 0d 0a 73 3b 67 0e ce 3e b8 dc 1d be
       0.19900529 0.0037084848 0.40245363 -0.15416229
000350 67 84 8c be e7 2b 80 be 46 8a 26 3e 15 35 8f 3d
       -0.27444765 -0.25033495 0.16263685 0.069925465
000360 e2 6f 12 be 0f 9c f4 3d 4f ee 02 bd f7 af 9f 3d
       -0.14300492 0.11943828 -0.03196555 0.077972345
000370 6f 63 d8 3d 02 d5 15 3d c4 d0 14 3e dd a8 9f be
       0.105658405 0.036580093 0.14532763 -0.3118352
000380 c2 b3 b1 bc 7d 89 76 bd 1b ee bb be 0c db 72 3e
       -0.02169216 -0.060189713 -0.36705098 0.23716372
000390 ee 14 6c 3d fe 22 f2 3d d9 90 91 be 2d 72 00 bf
       0.057637148 0.118230805 -0.28430822 -0.5017422
0003a0 93 e9 30 bc 75 84 ed 3d 56 19 b3 bd e8 08 b5 bc
       -0.010797876 0.1159753 -0.08745067 -0.022098973
0003b0 fa 12 f1 bd 57 e2 95 3e 81 49 3e be f0 b8 bc be
       -0.117711976 0.29274246 -0.18582727 -0.36859846
0003c0 0f 69 c3 3d 98 55 04 3f 67 0a 84 bd cb 94 d6 be
       0.09541523 0.51693106 -0.064472966 -0.41910395
0003d0 4f 56 68 3e 9e b0 76 be 45 56 a0 3c 2a 4d 39 bd
       0.22689174 -0.24090812 0.019572387 -0.045239605
0003e0 2b 4e 84 bc 6d db 8b bc a6 8b 8a 3e 7c 00 87 3d
       -0.016150555 -0.017072404 0.27059668 0.06591889
0003f0 c7 a7 3e bd 6c 8e c2 be 9c 66 5a 3e e3 10 46 3d
       -0.046546724 -0.37999284 0.21328205 0.04835595

bias f4 [60]
000000 68 ef e1 3e b3 17 63 be ec ad 42 bf 04 81 ac bd
       0.44127965 -0.2217701 -0.76046634 -0.08423045
000010 dc 2a 80 be ea 10 51 3e 77 09 39 bc 17 3c 1f be
       -0.250327 0.20416608 -0.0112937605 -0.15550266
000020 0c c0 fd bd e6 e4 49 be f7 24 57 3d 7c 2d b6 3d
       -0.12390146 -0.19716224 0.052525487 0.08895394
000030 0e f0 fd bd 12 88 b4 3d 24 50 f6 3b b0 b4 0b be
       -0.123993024 0.08815016 0.0075168777 -0.13643146
000040 33 9a 95 be 72 16 5d 3d 74 ea f6 3d 9b 3f a0 be
       -0.29219207 0.053976484 0.12056437 -0.31298527
000050 02 b2 45 3d 3b 90 a2 3e 62 20 19 bd 2d 03 f0 bd
       0.048265465 0.31750664 -0.0373844 -0.11719356
000060 40 ea de 3d 7f dc 5f 3f 99 b1 a7 3d cc ce 32 3e
       0.108845234 0.87445825 0.08188171 0.17461699
000070 c3 ac 5d be 92 ea 71 3c 61 53 13 be 91 ce 16 3e
       -0.21647935 0.014765399 -0.14387275 0.14727236
000080 85 14 8c be 32 b4 79 3c 7f 2c 0f 3f cd 3a bc 3b
       -0.27359405 0.015240716 0.5592727 0.0057443143
000090 0a 82 11 3e 56 b3 c9 3d b1 af df 3d e3 0e 92 3e
       0.14209762 0.09848659 0.10922182 0.28526983
0000a0 fc e8 22 3d c5 50 9f 3e 02 3f 35 be 31 e2 2b 3e
       0.039772972 0.3111631 -0.17699817 0.16785504
0000b0 ad 86 ee 3d 1c 83 40 be cf 7b c9 bd c2 65 de be
       0.11646781 -0.18800014 -0.09838068 -0.4343701
0000c0 72 b2 18 be b6 84 03 3f a6 25 15 be 44 1b 49 be
       -0.14911821 0.51374376 -0.14565143 -0.19639307
0000d0 93 ef 1d 3e eb a4 e7 3d b6 fc e0 bd 14 66 05 3e
       0.15423422 0.113107525 -0.10985701 0.13027221
0000e0 1c 18 6d 3d 32 e9 21 bd bc 1f cd bd 51 f4 39 3d
       0.05788432 -0.039529033 -0.100158185 0.045399014

weight f4 [30, 60]
000000 62 a3 87 3e 28 36 bd 3e 4a a0 f9 bc 7c 12 3b be
       0.2649184 0.3695538 -0.03047194 -0.1826877
000010 64 80 2d be b2 09 ff 3d 08 bc 28 3e d2 86 67 3d
       -0.16943508 0.12453021 0.16477978 0.05652506
000020 47 f4 b3 3d 12 27 57 3e cd 7d 7c be 78 86 fb 3d
       0.087868266 0.21010998 -0.24657364 0.12281507
000030 96 01 a2 3d 34 4a 5e 3e 38 33 e5 3d 3d be da 3e
       0.07910459 0.21707994 0.1119141 0.42723265
000040 0c 26 ba 3d 51 a5 2b 3e e0 30 b7 bd 06 b9 cb 3d
       0.09089288 0.16762282 -0.08944869 0.099474
000050 3c c3 81 bd 07 66 51 be db ea 74 3c fd ac 74 3d
       -0.06336066 -0.20449077 0.014948572 0.059735287
000060 e6 a2 8e be b7 58 ec be 08 46 05 be 31 72 89 3e
       -0.27858657 -0.46161434 -0.13014996 0.26844934
000070 4c 43 97 3e 11 2f b0 bc c5 b5 bc bc 36 8c 55 3d
       0.2954353 -0.021506818 -0.023035893 0.05213567
000080 41 e0 bd 3d cc b0 cf 3e 1c 41 68 bd d8 7e 1e 3d
       0.09271289 0.40564573 -0.05670272 0.038695186
000090 ad b8 08 bd d6 cd 30 3e 06 e3 05 bd 45 ed a5 3d
       -0.033379246 0.1726602 -0.03268721 0.08101896
0000a0 4b 33 66 3d 8d 1b 1d 3f f8 3c 64 3c 66 71 43 3e
       0.05620126 0.61370164 0.013930552 0.19086227
0000b0 1f b0 86 be 2f eb 89 be db a4 7c 3d 4c 16 2a be
       -0.26306245 -0.26937243 0.061680656 -0.16610068
0000c0 cc 59 ae bd 04 c1 22 3e 6a dc 03 3e a9 3d 8c 3d
       -0.08513221 0.15893942 0.1287705 0.06847698
0000d0 af b4 27 bd 4c 94 fc bd e1 52 33 3e e6 25 b7 bb
       -0.040943798 -0.12332973 0.17512085 -0.0055892346
0000e0 9a 62 27 be a5 64 40 3e 30 61 d0 3d 76 2a 3d 3c
       -0.16346207 0.18788393 0.10174787 0.011545768
0000f0 ce af 81 3e f3 5b 60 3e 63 47 68 3d be 8f 74 3e
       0.2532944 0.21910076 0.056708705 0.23882958
000100 51 21 8c 3d 83 ac b3 be e6 a6 ec bd 04 c2 6e be
       0.06842292 -0.35092553 -0.11555271 -0.23316199
000110 2c 99 86 be 4d 5f 8e bd ff e0 27 3d f0 02 4e be
       -0.26288736 -0.06951771 0.040986057 -0.20118308
000120 8a fd d2 3e 8d 0d 10 bd 00 ac a3 bd e1 41 f8 3d
       0.4120906 -0.035169173 -0.07991791 0.121219404
000130 a3 5e 8d bd 3e 3c 92 3e af 9f f1 bd 17 6a 54 3e
       -0.06902816 0.28561586 -0.11798035 0.20743595
000140 2c 02 36 3e 76 48 45 3e 69 fd 37 be da 8c 02 3e
       0.17774266 0.19265923 -0.17967762 0.12749043
000150 c6 7f b1 be b0 fe 0b be b8 4c ee 3d 54 d7 6a bd
       -0.34667796 -0.13671374 0.11635727 -0.05733426
000160 7c 97 a0 3e bc bb 17 be e9 62 3b be c2 d8 dc bb
       0.31365573 -0.14817709 -0.1829945 -0.0067397067
000170 c4 0b 1d 3e dc 10 4d bd 68 61 48 be c8 a9 01 bf
       0.1533652 -0.050064906 -0.19568408 -0.5064969
000180 4b 2e a5 3e d1 a2 36 be f1 52 1c be 0c fb 8f be
       0.3226188 -0.17835547 -0.15266015 -0.2812122
000190 fc 03 d3 3d 57 d0 48 3e 8d 87 ee bd bc d7 92 bb
       0.10303494 0.19610725 -0.11646948 -0.004481284
0001a0 bc e0 08 3d 19 f9 5c be 5c 77 4c be fd 86 fe bd
       0.03341745 -0.21579398 -0.19967407 -0.12428091
0001b0 03 bf bd 3d f0 61 b3 bc 3f 09 89 bb 41 bf 93 3d
       0.09264948 -0.021897286 -0.0041820104 0.07214213
0001c0 b8 ae 6e bd c5 2f f0 bc 0e 6c d8 be 26 7a 54 3d
       -0.058272094 -0.029319653 -0.4226994 0.051874302
0001d0 47 a9 98 bd d0 2c e7 be 97 de e3 be 8d a5 78 be
       -0.07454162 -0.45151377 -0.4450576 -0.24281903
0001e0 63 04 b3 3d f5 c2 dc 3d 5a 3f 2d be bc a7 d4 3d
       0.08741071 0.107793726 -0.16918698 0.10383555
0001f0 b0 86 50 3e 4e ef 54 3d 5c f5 6a 3c 80 65 12 be
       0.20363879 0.05198603 0.014340725 -0.14296532
000200 14 ca 79 3c 84 64 0d 3e 5a d3 a7 be 7d 91 49 bd
       0.015245933 0.13807875 -0.32778436 -0.049211014
000210 ed 4c 9a 3e da 5c f5 be 86 1f 65 be 68 2d 94 3c
       0.30136815 -0.47922403 -0.22375306 0.018088058
000220 cf 96 30 be 48 3e 32 3e 2b 9e 98 bd a3 ab fe bd
       -0.17245029 0.17406571 -0.07452043 -0.12435081
000230 95 15 01 be 2b ee 3e bd d4 06 9c be 3d c6 03 bd
       -0.12605889 -0.046613853 -0.3047396 -0.032171477
000240 79 ef be 3c f4 c4 85 be 29 c3 98 3d b9 58 e2 bc
       0.023307549 -0.26126826 0.07459099 -0.027630197
000250 3c 73 85 3b 64 ac e0 bb ef 26 9a bd 11 94 6d bd
       0.004072575 -0.006856488 -0.07526957 -0.058002535
000260 72 3b 0d bc dd 0d a7 3d b9 f5 00 3e 03 a9 af 3d
       -0.00862013 0.08156941 0.12593736 0.08577158
000270 9e 9b 3e 3d 4c 2d 36 bc 05 1a 35 bd cc 1b e8 3d
       0.046535127 -0.011119198 -0.044214267 0.11333427
000280 a8 d5 a1 bd b1 56 3a 3d dd 03 7b 3e b1 f1 83 bd
       -0.0790208 0.04549283 0.24513192 -0.06442583
000290 04 96 07 bf c9 58 a2 3c 2c e2 aa be fb 4f d6 bb
       -0.5296328 0.019817727 -0.3337568 -0.006540296
0002a0 4c 45 7d 3e 04 ba 1e 3e fd 33 58 3d 44 a2 8f 3d
       0.24733466 0.15500647 0.052783955 0.070133716
0002b0 73 12 24 bd 1b 3d c8 be 6e 6f 87 3d 82 de 4a bd
       -0.040056657 -0.3910912 0.066130504 -0.049528606
0002c0 56 db c5 3d de 83 1e bf 39 ca 04 3e 2e 52 e9 3d
       0.09660976 -0.61919963 0.12967767 0.11392628
0002d0 eb b0 aa bc 1c bb 1a 3e d2 52 2c be 8e e0 d0 3d
       -0.020836314 0.15110439 -0.16828468 0.101990804
0002e0 3e df 7e bd f1 63 6a bd 21 ef a1 3d fd c8 c3 bd
       -0.06222462 -0.057224218 0.07906938 -0.0955982
0002f0 91 55 9c bd 42 d4 47 be 9a 15 76 be 47 bd 9c bd
       -0.07633508 -0.19514564 -0.24031678 -0.07653289
000300 73 ab a1 3d 2c 0b 69 be f8 49 67 3e 65 b7 7f 3d
       0.078940295 -0.22758168 0.2258681 0.062430758
000310 3c 14 99 3e 26 f1 30 3d 9c 7d 05 be da 78 df 3e
       0.2989825 0.043198727 -0.13036197 0.4364689
000320 ec ac 82 3e 69 c6 21 bd 17 c6 8d 3e fc 2a 52 3d
       0.25522554 -0.03949586 0.27690193 0.051310524
000330 92 be f0 3d c1 9f 12 be ee d2 7d be e4 92 4b bc
       0.117550984 -0.14318754 -0.24787495 -0.012425158
000340 14 4e e8 3a 0a d3 9f bd d7 3f 06 3e 36 60 28 3e
       0.0017723464 -0.078039244 0.1311029 0.16442952
000350 53 4d 61 be b8 e0 bf 3e 64 d1 6b 3e df 8d 7c bd
       -0.22002153 0.37476134 0.23029095 -0.061658736
000360 1d 45 e6 bd a4 35 80 be 26 9d 23 3d a4 03 3a 3e
       -0.11243651 -0.25040925 0.03994479 0.18165451
000370 9f 11 be bd a8 e8 c9 3e b6 45 ff 3d e2 10 22 3e
       -0.09280705 0.39435315 0.12464468 0.15826753
000380 93 d1 84 be db f4 a5 bd ef 65 ed 3d 50 c3 33 be
       -0.25941142 -0.08103343 0.11591708 -0.17554975
000390 cb 45 f9 3d d2 5d 85 3e ed 4c 99 3e f8 77 71 3d
       0.12171515 0.26048142 0.29941502 0.0589523
0003a0 3d 9a f6 bd 00 38 1d 3e 8e a6 4f 3e 23 f2 7b bd
       -0.12041137 0.15353394 0.2027838 -0.061510216
0003b0 c5 43 89 be 61 07 cf 3e 98 29 d2 3d 88 48 be bd
       -0.26809517 0.40435317 0.1026184 -0.09291178
0003c0 4a ab 94 3e 73 1e 25 3e b2 cc 86 3e 95 34 3b be
       0.29036933 0.16124897 0.26328045 -0.18281777
0003d0 36 14 13 3f 4a 6d 59 bd 96 17 08 be 32 5f 10 3e
       0.57452714 -0.05308274 -0.13290247 0.14098814
0003e0 14 b3 f4 3d d1 05 ad bd 0c 7b 63 be f5 78 de bd
       0.11948219 -0.08448375 -0.22214907 -0.108629145
0003f0 67 a4 78 be 87 7a 7e 3d 04 c3 8e be 27 9b 08 be
       -0.24281465 0.06212857 -0.2788316 -0.13340436

bias f4 [30]
000000 b4 8c 46 c0 3b 02 fb be 2b 8e 06 bf 7e f6 21 c0
       -3.1023378 -0.4902514 -0.5256068 -2.5306697
000010 25 90 17 bf b7 d0 3e 40 d7 42 22 40 4a ac 94 c0
       -0.5920432 2.981489 2.5353296 -4.6460314
000020 db dd 5f c0 2e 17 0f c0 16 de 80 c0 23 67 3d 40
       -3.497916 -2.2357898 -4.02711 2.95942
000030 8a 3e d8 3e e8 43 44 bf 41 85 25 40 45 b5 66 c0
       0.42235214 -0.76666117 2.5862582 -3.6048138
000040 7f ba 3e c0 43 a3 2f c0 95 71 88 c0 a0 91 0a c0
       -2.9801328 -2.7443397 -4.263865 -2.1651382
000050 a0 60 9d c0 6e 6f 59 c0 83 10 6c 40 c3 3c 30 bf
       -4.918045 -3.3974261 3.6885078 -0.68842715
000060 aa e9 ab c0 b3 39 42 be 93 40 37 c0 39 f7 42 c0
       -5.3722734 -0.18967323 -2.8633163 -3.0463393
000070 2d ae f1 3c b7 77 46 40
       0.029501999 3.1010568

weight f4 [1, 30]
000000 d4 a0 f1 bf 05 d1 ab 3f 7f 6d b2 3f d7 d5 bb 3f
       -1.8877206 1.3423163 1.3939666 1.4674634
000010 eb 20 a2 bf e6 30 fb 3f f7 60 cd 3f fb b4 ea bf
       -1.2666296 1.9624298 1.6045216 -1.8336481
000020 4a 57 e6 bf 83 8e c9 bf d9 09 c3 3f ac 58 b5 bf
       -1.7995389 -1.5746616 1.523738 -1.4167686
000030 69 86 a9 3f 4f 23 50 40 ec e1 9e 3f df de fd 3f
       1.3244144 3.252155 1.2412696 1.983364
000040 9e 1b d1 bf d8 cd ce 3f 34 cf 0a c0 5f ba aa bf
       -1.6336553 1.6156569 -2.1688967 -1.3338126
000050 9f fe c6 bf 94 7a b0 bf ee b3 0b 40 5c 15 e4 bf
       -1.5546454 -1.3787408 2.182857 -1.7819018
000060 5e 65 15 c0 f8 80 36 3f e7 92 b3 bf 67 99 02 c0
       -2.334312 0.7129054 -1.4029206 -2.040613
000070 21 0b 2a c0 6a 91 e3 3f
       -2.6569293 1.7778752

weight f4 [30]
000000 71 5a 70 3f 72 fe 8e 40 b8 89 67 40 a8 bb 2e 3f
       0.93888 4.46856 3.6177807 0.6825509
000010 eb 06 24 40 56 33 fd 3f fc db 37 3f 75 67 96 3f
       2.5629222 1.9781291 0.71820045 1.1750323
000020 93 5b 9e 3f b9 ab e3 3f 67 ca 56 3f 2a fb 8e 3f
       1.2371696 1.778678 0.8390259 1.1170399
000030 ee a2 24 40 aa a1 37 40 c2 4f 5f 3f 11 e4 8c 3f
       2.5724444 2.8692422 0.87231076 1.10071
000040 be 3a 69 3f 74 97 e1 3f 9f 02 b3 3f f4 93 ea 3f
       0.9110526 1.7624345 1.3985175 1.8326402
000050 e0 88 2e 3f 70 3d 8c 3f 52 5a dc 3f 6d 86 00 40
       0.68177605 1.0956249 1.7215064 2.0082047
000060 57 8d 9f 3f 8c 41 de 40 1a 79 8e 3f 17 53 d2 3f
       1.2465008 6.9455013 1.1130707 1.6431607
000070 dd b6 12 40 02 af 4f 3f
       2.292411 0.81126416

bias f4 [30]
000000 7e 1a 8e bf 37 26 2c 3f bf c5 4b be 43 d5 1f 3f
       -1.1101835 0.6724581 -0.19899653 0.62434787
000010 ce fe f7 3f e1 dc 1f 3f d9 55 29 3d 1c a2 6a 3f
       1.9374635 0.6244641 0.041341636 0.9165361
000020 fe d9 09 bf 0b f6 80 be 17 24 6c 3e 0d 93 59 be
       -0.53848255 -0.25187716 0.23060642 -0.21247502
000030 7f 4d 4c 3f f1 d4 02 c0 f5 d2 3e 3e 1f 25 45 bf
       0.7980575 -2.044247 0.18635161 -0.7700977
000040 a1 92 9e be a7 3b ae 3f f1 3f 41 bd a5 73 b9 3f
       -0.30971244 1.3611954 -0.04718012 1.4488417
000050 b6 d5 4e 3e 54 50 8f 3e 30 49 97 3f d0 de e2 bf
       0.20198712 0.27990973 1.181921 -1.7724247
000060 2b 2d 22 bf 28 ae 01 3f d0 d0 44 be 90 fd e2 bf
       -0.6335017 0.50656366 -0.1922028 -1.7733631
000070 3c 96 eb bf 20 02 a5 ba
       -1.8405223 -0.0012589134

running_mean f4 [30]
000000 c0 0b f2 40 4b 47 97 40 bc 9f d9 3c 51 28 01 c1
       7.5639343 4.7274528 0.026565425 -8.072343
000010 2f 10 28 41 9a 3a 0c 41 60 50 8f 41 bc 0d 99 c1
       10.503951 8.764307 17.914246 -19.131706
000020 7b 6a 6c 41 ed 01 78 42 e8 19 c7 40 e3 ea 96 40
       14.775996 62.00188 6.2219124 4.7161727
000030 fd b2 a1 c0 68 83 00 c1 77 35 85 c0 31 d5 a8 42
       -5.053099 -8.032082 -4.1627765 84.41639
000040 72 f1 40 c2 eb f3 6e c1 51 d2 a7 41 ec 89 69 41
       -48.235786 -14.93455 20.977694 14.596172
000050 0f 4a 92 c1 15 ff 7e 40 c2 54 1c 42 d5 38 71 41
       -18.286161 3.984319 39.08277 15.076375
000060 87 7d b8 c1 e6 84 74 40 2c 7b e0 41 2e cc b6 41
       -23.061293 3.8206115 28.060143 22.849697
000070 76 91 25 41 b1 8b 9c c1
       10.348013 -19.568209

running_var f4 [30]
000000 32 83 d5 42 4f c2 4c 44 b6 84 07 44 b6 76 07 43
       106.75624 819.0361 542.0736 135.46371
000010 e9 e9 80 44 cf 5e 5c 43 14 b3 05 42 7e d8 8a 43
       1031.3097 220.37035 33.42488 277.69135
000020 89 df 4c 43 03 a3 e5 44 d8 6b 2e 43 94 f7 63 43
       204.87318 1837.0941 174.42126 227.9671
000030 2e 97 15 43 4f 9d a0 44 82 fa 4a 43 72 98 e2 44
       149.59055 1284.9159 202.97855 1812.7639
000040 2f 69 fa 43 d5 1d 81 43 d7 ca 14 43 b2 b9 4b 44
       500.82175 258.23306 148.79234 814.9015
000050 a5 68 57 42 86 89 e9 43 c9 b6 72 45 cf 79 92 43
       53.852192 467.0744 3883.424 292.95163
000060 1e 1f b1 42 c1 48 ce 44 ed 57 f5 43 18 09 8d 43
       88.560776 1650.2736 490.68692 282.07104
000070 98 45 06 43 d4 1b b8 42
       134.27185 92.05435

weight f4 [60]
000000 2f da 5a 3f d7 ba 34 3f e8 f5 43 3f 22 aa 5c 3f
       0.8548917 0.70597595 0.765471 0.861971
000010 d9 f2 c8 3f 96 f8 37 3f 90 a3 04 40 e3 f3 80 3f
       1.5699111 0.7186369 2.072483 1.0074428
000020 0a 0f 7c 3f 08 34 92 3f c9 39 4d 3f 7d c0 10 3f
       0.9846045 1.1422129 0.801663 0.56543714
000030 79 58 37 3f 05 c7 8d 3f a5 cc 00 40 52 26 34 40
       0.71619374 1.1076361 2.0124905 2.814839
000040 34 d8 48 3f ce 70 86 3f a6 91 a7 3f e5 77 57 40
       0.784549 1.0503175 1.3091323 3.3666928
000050 ca a7 20 3f 6a 37 5e 3f da b4 22 40 1e 36 71 3f
       0.62756026 0.86803305 2.5422883 0.942232
000060 92 1c 71 3f 05 7e 36 3f 2f a4 a1 3f ce 40 0e 40
       0.9418422 0.7128604 1.262823 2.2227054
000070 53 84 18 3f 9a c8 2b 3f 80 55 18 3f 14 75 09 40
       0.5957691 0.6710297 0.5950546 2.147771
000080 a9 35 95 3f cc dd 87 3f bd 19 5f 3f 35 03 ae 3f
       1.1657001 1.0614562 0.8714865 1.3594729
000090 86 36 88 3f a7 f6 a2 3f 19 e4 01 40 28 02 0d 3f
       1.0641639 1.2731522 2.029547 0.55081415
0000a0 92 73 74 3f 3f 54 41 3f d2 ae 32 40 4c 82 f1 3f
       0.95488846 0.75519174 2.7919202 1.8867888
0000b0 67 12 8b 3f f6 21 da 3f 0a 66 47 3f b6 5e 97 3f
       1.0864991 1.7041614 0.77890074 1.1825778
0000c0 ed 73 31 3f 9d b9 71 3f 06 bf 24 3f ca 31 6a 3f
       0.69317514 0.9442385 0.6435398 0.9148222
0000d0 9a 42 eb 3f d7 3b 02 40 26 12 45 3f 43 b0 5d 3f
       1.83797 2.0349023 0.7698082 0.8659708
0000e0 e0 54 7e 3f 9a 0c af 3f 13 93 35 40 7d 4d f0 3e
       0.9934826 1.3675721 2.8371017 0.4693412

bias f4 [60]
000000 75 89 46 3f 41 6f 97 bf 68 e2 4e bf cc a8 7e bf
       0.7755349 -1.1830827 -0.8081422 -0.99476314
000010 4e 33 cc bf b6 4e 88 3f 97 cf 60 bf 1c 52 a8 bf
       -1.5953157 1.0649021 -0.87816757 -1.3150058
000020 6c 67 e7 3f 7b 19 a4 3f dd 8a ab 3f ee 6e 17 bf
       1.8078437 1.2820276 1.3401753 -0.5915364
000030 4c 2e 4c 3f c0 0d ec 3f 12 80 38 bf 2d f3 b4 be
       0.79758143 1.8441696 -0.7207042 -0.35341778
000040 7e fb b3 3f d9 21 b9 3f 16 a3 37 bf 28 75 08 3e
       1.4061124 1.4463454 -0.71733224 0.13325942
000050 d7 06 9d 3f 7f 1e 8a 3f 5c 19 86 be e4 0a 4d 3f
       1.2267712 1.0790557 -0.26191223 0.8009474
000060 6f 2c 8a bd a5 6b 69 3f 9d cf b5 3f c2 f6 c3 be
       -0.06746756 0.9117988 1.4203984 -0.382742
000070 e5 b1 e9 be 50 7e df bf 0b 29 11 3f 0f 0c c1 bf
       -0.45643535 -1.7460423 0.5670325 -1.5081805
000080 c7 a0 3a bf 34 91 ca bf 67 5c ac 3f 52 d3 04 c0
       -0.72901577 -1.5825562 1.3465699 -2.075398
000090 6c 50 fa be fd fb e8 3f b3 07 22 c0 76 a2 4a bf
       -0.48889482 1.8201901 -2.53172 -0.79154146
0000a0 39 bc 40 bf 22 3c a1 be ab 05 12 3e ce 79 1c bf
       -0.75287205 -0.3149119 0.14259975 -0.6112336
0000b0 37 f9 7d 3f b2 46 42 3f 86 54 2f bf 5d 36 af 3f
       0.99208397 0.7588912 -0.6848835 1.3688465
0000c0 de 0b 36 bf e5 84 9d 3f e1 3a 5b 3f 0c b1 aa 3f
       -0.7111186 1.2306181 0.8563672 1.333528
0000d0 7e c5 c6 bf 9d a1 ba bf 19 3a 9a 3f c2 1d 8a bf
       -1.552902 -1.458057 1.204898 -1.0790331
0000e0 fc 75 b0 bf 49 ff e0 bf f1 1d a7 3f 9f 47 9b 3f
       -1.3786006 -1.7577907 1.3056012 1.2131232

running_mean f4 [60]
000000 a7 e1 4b 3f 85 fa d2 be b1 70 3b bf f1 0f c8 be
       0.79641193 -0.41206756 -0.7321883 -0.39074662
000010 9c 8c a5 3d 49 5e cb bd 3a c4 b8 bf a3 aa 3a bf
       0.0808346 -0.09930093 -1.4434884 -0.7291662
000020 40 4e 42 be d4 03 d2 3d d0 7c c7 bd af 45 05 be
       -0.18975163 0.102546364 -0.09740603 -0.13014863
000030 6d 93 69 3c e2 db 1b 3e 3c b7 d7 3e fd ec 02 bf
       0.01425634 0.15220597 0.42131984 -0.51142865
000040 84 8d 0d bf 7b ce 83 bf c9 3b 89 bf 9c c1 d1 bf
       -0.5529406 -1.0297388 -1.072137 -1.638721
000050 85 57 9b be f9 d7 11 3e a5 28 e2 be 38 45 f3 bd
       -0.3034021 0.14242543 -0.44171634 -0.11878437
000060 7f 82 80 3f 3e 85 80 3f 22 03 4a 3f a1 4b c8 3f
       1.0039824 1.0040662 0.7891103 1.564808
000070 00 c5 c3 be 01 ff 52 3f f6 08 4e bf 50 80 10 3f
       -0.38236237 0.82420355 -0.80482423 0.5644579
000080 2d 93 ba bf e8 5b 88 3e c2 72 d0 3e e5 36 b6 be
       -1.4576164 0.2663262 0.40712553 -0.35588756
000090 f5 ac 8c 3f 34 c7 3c 3e 80 c5 d8 be 44 f6 48 be
       1.0990282 0.18435365 -0.4233818 -0.19625193
0000a0 6a ce 76 be b6 79 b9 3e 44 08 25 bf 92 a0 6e 3f
       -0.24102178 0.3622567 -0.6446574 0.9321376
0000b0 32 ef 82 bd cd 22 44 be be 95 a3 bf 08 af af bf
       -0.06393279 -0.191539 -1.2780073 -1.372529
0000c0 d2 51 8b bf 70 19 4e 3f f0 15 cc 3e 3c 5a 12 bf
       -1.0884345 0.80507565 0.39860487 -0.57168937
0000d0 b9 94 49 be 6a 32 db be b7 1e 3f bf 89 7d 8b 3f
       -0.1968564 -0.428119 -0.7465624 1.0897685
0000e0 30 60 1e bf 0a 6a 92 be 6a 44 6d bf eb 0b ec be
       -0.6186552 -0.28596526 -0.92682517 -0.46102843

running_var f4 [60]
000000 32 db 65 3d ea 9b 8b 3d 99 2e 2c 3d 79 bb c1 3d
       0.056117244 0.068168476 0.042036626 0.09459586
000010 39 2d 26 3e c0 f6 4e 3d 02 49 95 3e 50 6a 4b 3d
       0.16228189 0.050528288 0.29157263 0.049661934
000020 4d 2b c4 3d 54 59 17 3e 11 0d a9 3c fe df e1 3c
       0.095785715 0.1478017 0.020636113 0.027572628
000030 b5 38 6a 3d 68 b5 a1 3d 0c 4f 91 3e 41 e0 c6 3e
       0.057182986 0.078959286 0.2838062 0.38842967
000040 08 52 5f 3d c1 64 72 3d fe 79 ab 3d 2f 4f ab 3e
       0.05452159 0.059178118 0.083728775 0.3345885
000050 c6 9f 3f 3d 06 98 f8 3c 2a cf 9a 3e 17 c9 c6 3c
       0.04678323 0.030345928 0.3023618 0.024265809
000060 56 ea 2d 3d f8 b5 ea 3c a9 9d 25 3e 8e c9 c0 3e
       0.04245981 0.028651223 0.16173424 0.37653774
000070 5d 60 f2 3c 2d 4b a2 3c 39 f7 02 3d ab 8d 6e 3e
       0.029586965 0.019811237 0.03197405 0.2329623
000080 27 22 87 3e 03 54 13 3e 9a e7 9d 3d 46 53 d5 3d
       0.26393244 0.14387517 0.0771019 0.10416274
000090 dc cf d3 3c 83 56 90 3d b4 35 cc 3c 02 ed c5 3c
       0.025855951 0.07047751 0.024927951 0.024160866
0000a0 07 94 2e 3d f0 2f d9 3c c6 f5 d4 3e b6 5e 6f 3e
       0.04262164 0.026512116 0.4159376 0.23375973
0000b0 be ef 84 3d fc 4f 27 3e e7 c8 ba 3d d9 22 f8 3d
       0.0649104 0.16339105 0.0912035 0.12116022
0000c0 5b 05 54 3d e7 d3 2e 3d c1 45 ce 3d 53 e5 40 3d
       0.05176292 0.042682555 0.10071898 0.0470937
0000d0 7b 41 24 3d cd b6 8d 3e 51 93 77 3d 0a 2b 85 3e
       0.04010151 0.27678528 0.060443226 0.260094
0000e0 9a de 94 3d 72 33 42 3e ac ef a0 3e 24 3f 8c 3d
       0.072690204 0.18964937 0.31432855 0.068479806
