experiment/cost_saving_increase_data/net80.pth (torch, 46228 bytes, 23 tensors)

weight f4 [20, 15]
00000000: c87a 273e 1d0d 18be 45d6 afbc 3b33 adbc
00000010: 5f81 35be dd75 ae3d 4e7f 2cbc 5499 de3d
00000020: b252 df3e f24e 0e3e 5ed4 c3be 895f 70bf
00000030: 3b8c 9a3f 7beb 60bd a224 83bf b468 75bb
00000040: 7978 69be 59d8 55bd c6c0 933e 05e4 e93d
00000050: 5c9e e1bd e80b 093c 776e 86bd 3573 b6be
00000060: 43c8 e7bd d62f 733d 4df7 b4be d2bb ea3e
00000070: 725e 5dbe 5d39 523e 2a4d aabb 16b0 973d
00000080: eb3d d73a eb58 1bbd 6328 aebe 49b5 3ebe
00000090: 9753 b03e b9bc 1e3e a534 f93d f553 81bd
000000a0: 955c b1bd f3e5 0fbf 230d df3e c952 bbb9
000000b0: 4e13 abbd 5826 233c fc08 5c3d c96b 00bb
000000c0: f759 9ebc 8fc6 37bc e2b8 cbbe 6ca0 1b3b
000000d0: 38c8 bc3e 3947 833c 3e39 3dbd 8222 533c
000000e0: e388 393e 3b3b 85bf c3fc c6b8 77bc 6b3e
000000f0: f6d6 fcbd d791 403c cc71 513e 6964 0a3d
00000100: 4a12 8abd ccbb 51bd 996c d1bc c75b 8b3b
00000110: d846 243e d4d7 0e3e 7f37 5c3f d742 533f
00000120: 48b1 963f aeea eeba 7933 00c0 c9d5 1dbd
00000130: e039 c83d ca11 0e3c 3b6b 2cbd ea24 903d
00000140: 548f 39be d744 20bd eaad f73d b4c6 c53d
00000150: 5be1 efba f93c 01be 0fae 6abe 797a 2640
00000160: 14a6 0839 6e94 afbe 0fac 8d3d a632 2cbe
00000170: e251 debc 2cb6 4f3d 5b30 d4bd acad 45be
00000180: af16 813d 5c8b 933e ff20 b1bd cda4 edbb
00000190: c629 0d3c 8ada 4a3d aecd ad3f 2cad ea39
000001a0: 5b7c afbe 89c7 46be 9b78 6d3e e5b8 2bbd
000001b0: 3495 983d 5628 413e 80e4 8bbe f6e5 4b3e
000001c0: 66bb 743e 4699 2cbe 09b3 ce3d 1046 8e3e
000001d0: b042 583f d9a5 473f 2dc0 d6bd 5857 98bf
000001e0: 3e72 1bbe 4b71 12bd 530f 243e 9cc3 39be
000001f0: 4d93 2f3e 0b09 c7bc 8529 67be 0d20 22be
00000200: de24 ab3c 75c7 ae3e 66e9 ebbe 79e0 11bf
00000210: e36f a43f 8843 233e 531d 91bf 745f 053e
00000220: 0e8d c93e 2384 f6bb 566d ddbe c3f9 02be
00000230: caa3 7c3d b162 0d3c 8f92 d6bc d47b 7abe
00000240: 2caa 83bd 7fb9 7dbe c39b 6abe 9996 bc3e
00000250: 505d 203b 8531 a63d 494f 1b3d c4e1 3c3e
00000260: 6c1a a1ba 10b9 9abd cdb1 54be b12d 15be
00000270: 708e f7bd 73a1 50be c062 01be a025 b2bd
00000280: a1ea 133f 245b 9b3f fbf3 dd3f 73ad d83d
00000290: 565b fbbe 380f 0e3d 4cda 5d3e cecd 5abc
000002a0: 7c1e 7bbe a9c6 21bd 3b30 fbbd 6244 eb3c
000002b0: b25d 113e 1fca 1c3d d413 313e de87 cb3e
000002c0: 5955 163f 22fc 9abf 959f 6bbb 0e91 8f3f
000002d0: e585 5d3d 4da2 613d 67c4 c83c ba0e c8bd
000002e0: 9301 203c 6b20 22be 2fa9 56be 5c96 8b3d
000002f0: e184 eb3c 0d52 b9bd 2f37 16c0 0acb 2ec0
00000300: 5fae 2fbf c91d c43c 95f9 273f 05f6 7fbe
00000310: e29c cfbd 2e30 a13e 2da6 383e f55f 31bd
00000320: 0d19 f7ba 9e83 89bc 32f4 9dbd 1020 18be
00000330: d813 4cbe a548 d1be f933 43be a682 75bf
00000340: 5b2d 44ba 3ac3 c63f 4e0a 09bd 2dea 993d
00000350: a2a0 54be 5bdb 853d af04 243e 9028 e73e
00000360: c6c9 363e c9c2 27be 1770 bbbe 0f52 15bc
00000370: 3225 0a3e 425a 383f 77de 60bf bf15 29be
00000380: ee7f 6b3f 2011 57be 6e1f 45bd a23d f03d
00000390: 299a 2c3d fa0b 8b3e f86a 96be 12a4 4ebe
000003a0: 8473 bb3e c728 933e 152e 00bd 964a 4a3e
000003b0: 4c04 56bc cced 723f 4b8e 9439 99d8 91bf
000003c0: 4865 19be 515d 0cbe 3c57 f33d 18bb 6dbd
000003d0: 302f 2ebd a844 a83c abca 1dbe e778 16be
000003e0: 5398 b7bd 05bb 113e 446a 9d3f 4872 7a3f
000003f0: 62ec cbbf 97eb e83d 3da4 fc3e 9c2b 14be
0.16355431 -0.14848752 -0.021464476 -0.021142593 -0.17725132 0.085185744 -0.010528399 0.10869089
0.4361778 0.13897303 -0.3824796 -0.93895775 1.2074045 -0.05491207 -1.0245554 -0.003744644
-0.22799863 -0.05220828 0.28858012 0.114204444 -0.11016533 0.008364655 -0.06564038 -0.3563477
-0.11317494 0.05937179 -0.35344926 0.4584642 -0.2161806 0.20529695 -0.005197187 0.074066326
0.0016421651 -0.037926596 -0.34015188 -0.18623842 0.34438774 0.1550168 0.12168244 -0.06314842
-0.08660237 -0.5621025 0.4356471 -0.000357291 -0.083532915 0.009957872 0.053719506 -0.0019595495
-0.019330008 -0.011216774 -0.39789492 0.0023746742 0.36871505 0.016025173 -0.04619717 0.012886645
0.18118624 -1.0408701 -9.488456e-05 0.23021112 -0.12345688 0.011753521 0.20453566 0.033787165
-0.067417696 -0.051204488 -0.025564479 0.004252884 0.1604265 0.1394952 0.8602218 0.82523865
1.1772852 -0.0018227899 -2.0031416 -0.03853396 0.09776664 0.008671233 -0.04209445 0.07038291
-0.18121082 -0.03912815 0.12093718 0.0965704 -0.0018301414 -0.12620915 -0.2291796 2.6012251
0.0001303184 -0.3429293 0.06917583 -0.16816196 -0.027138654 0.050710842 -0.103607856 -0.19304532
0.06303155 0.2881726 -0.08648872 -0.007252312 0.008615917 0.04952482 1.3578393 0.0004476098
-0.34274563 -0.19412054 0.23190539 -0.041924376 0.07450333 0.18863043 -0.2732277 0.19911942
0.23899612 -0.16855344 0.10092742 0.27787828 0.8447676 0.7798744 -0.10485873 -1.1901655
-0.15180299 -0.035752576 0.1602147 -0.18141025 0.17146035 -0.024296304 -0.22574432 -0.15832539
0.020891603 0.3413655 -0.46076506 -0.56983143 1.2846645 0.1594373 -1.1337074 0.13024694
0.3936543 -0.007523076 -0.4324748 -0.12790589 0.06167964 0.008629487 -0.026192931 -0.24461299
-0.06428942 -0.24777792 -0.22910981 0.36833647 0.002446968 0.08114914 0.03791741 0.18445498
-0.00122912 -0.07554829 -0.2077095 -0.14568211 -0.12087715 -0.20374088 -0.12635326 -0.08698583
0.5777989 1.2137189 1.7340082 0.10579958 -0.4909312 0.034682482 0.21665305 -0.013354732
-0.24523348 -0.039496098 -0.122650586 0.02871913 0.14195898 0.038278695 0.1729272 0.39752096
0.5872398 -1.2108195 -0.0035953273 1.1216142 0.05408277 0.055086423 0.024507714 -0.09768434
0.009766 -0.15832679 -0.20962976 0.06815788 0.028749885 -0.09048853 -2.3471181 -2.7311425
-0.68625444 0.023939984 0.65615207 -0.24996193 -0.10137345 0.3148207 0.18032141 -0.043304402
-0.001885207 -0.016786393 -0.07712592 -0.14855981 -0.19929445 -0.40875736 -0.19062795 -0.9590248
-0.0007483565 1.5528328 -0.033457093 0.075153686 -0.20764402 0.06535979 0.16017412 0.45148134
0.17850408 -0.16382898 -0.36608955 -0.009113803 0.13490751 0.7201272 -0.87839454 -0.16512202
0.9199208 -0.21002626 -0.048125677 0.117305055 0.042139206 0.27157575 -0.29378486 -0.20179775
0.3661157 0.28742048 -0.031293947 0.19755015 -0.013062548 0.948941 0.00028334776 -1.1394225
-0.14980042 -0.13707472 0.11881873 -0.058039755 -0.04252547 0.02054055 -0.15409343 -0.14694558
-0.089646004 0.14231499 1.2298055 0.9783063 -1.5931513 0.1137306 0.49344054 -0.1446976

bias f4 [20]
00000000: 2535 0ebd d817 97bd 9a17 923d 37d2 92bd
00000010: 502b 09bd 7003 00be af22 85be f2ab 663e
00000020: 8300 3e3d e31d 693e e39d 33bd 8b27 6ebd
00000030: 1d34 79be 92d6 bcbd a565 2c3e 7611 87be
00000040: 947a b8bd f1fb 1f3e f3c1 123e 720d c63d
-0.03471865 -0.07377595 0.07133408 -0.071690015 -0.03348857 -0.12501311 -0.26003024 0.2252653
0.046387207 0.22765307 -0.043851744 -0.05814318 -0.24336286 -0.092206135 0.1683565 -0.2638051
-0.09007755 0.15623452 0.14331798 0.09670533

weight f4 [40, 20]
00000000: 0523 40be 1d32 24bd 69ab ad3c 4272 313e
00000010: 1f41 273d f1b4 863c fb8e 7fbe 147d b3bc
00000020: e09e d7bd 31de 6ebd 9342 8b3d d522 333e
00000030: 63db b93d 9179 74be 8dc0 0e3d d120 c83a
00000040: 55e4 b3bd ff39 01be bf14 7a3e 74de 363b
00000050: 113a 13be c24a aebd 7845 e5bd b70a a23e
00000060: 8606 b3bb c44a b6bd 0118 e5bd dff5 dbbd
00000070: 5d10 50be 53ed 9dbd 0d54 9f3d 5d68 233e
00000080: 9534 f3bd dad2 13be 5b30 4c3e 0297 c03d
00000090: 28d8 7e3e 6e60 cdba 594d 2c3e 8ea6 cb3d
000000a0: c8f6 07bd 92b4 36be 2680 243e 0f1c a8ba
000000b0: 766b 013d 5a24 633c 82a1 3cbe 8636 c6bd
000000c0: 5a91 033d 4410 7abd 0a01 86be d25f 533e
000000d0: dce8 1f3e c4ab bdbd 6f85 233d 0526 fd3d
000000e0: e34c cbbc b0c0 013e beb1 2d3e a224 213d
000000f0: 7afe ee3c 4338 cabd 5b3a 713e 8aed 8c3c
00000100: 34d8 2abe 38a7 633e c961 3d3d 644e 043e
00000110: 2c81 51bd b0d7 b3bd 7c3c 2fbd 1b5b 7a3e
00000120: 5395 953d 12f6 c5bd 29a7 6a3e 9f0a 90bd
00000130: 8225 cf3d 27b0 14bc 76b0 883d daf7 433e
00000140: 7abd debc b9fb 523e 359d 553e 1179 f7bd
00000150: 723c d8bb 0992 09be 8aaf 4cbe 52ee 36be
00000160: 7736 1c3e 52cf 023e c3ea 44bd 6006 a03d
00000170: c169 a43d 584c c2be b449 9f3d d2e9 b73d
00000180: 64d2 0ebe 52ee fa3d b405 a8bd b9a7 563c
00000190: 6d35 76be 1853 2a3e b287 e0bb 9f79 413e
000001a0: 0eab dcba 9154 823e 3d2e 20be 790d 3fbe
000001b0: daa6 5d3d d951 aa3c f65e 9ebd a4d7 a0bd
000001c0: 70cf 38bd 495a dd3d 06b2 173e 8935 36be
000001d0: ddb3 003e d653 1f3d 6e3a ab3c 68b9 eb3d
000001e0: 6065 43be c499 363e af11 c8bd c5d1 963b
000001f0: 3c6e 80bd f779 c33e a032 aebd 2c04 b33d
00000200: ae89 ff3c 3180 84bd e52a 433c 9809 123e
00000210: 34e9 1f3e b28a ccbd 27dc 263e 4885 123d
00000220: f4b1 8ebe 6572 9dbe e7c4 1d3e 468c 0dbe
00000230: b60d 253e 90b5 69be ac15 1a3e 288c d63d
00000240: f04d 30bd 00fd 033e 4fd4 8abe 53d7 e2bd
00000250: d482 193d 5c06 06bd 593c dcbc fff6 61bd
00000260: 847a 843e 5d98 ff3d 226b 7f3e 41ad 2c3c
00000270: 6b9a 5fbe 5178 3b3d f3e1 6b3d ca78 51be
00000280: 0ec8 be3d 78fe 1bbe 1401 a7bd ac7b f23d
00000290: 4a0c 933e ea14 c9bd c133 2dbe cc20 6b3e
000002a0: f98b 503d 6ad0 223d b253 383e 879d aabd
000002b0: b117 393c 6507 74be 2b8c c23d 3333 3e3d
000002c0: d9c5 b03d fe9b d7bd 62bf 21be 6e59 c73b
000002d0: 1e5d ce3d b325 afbd f0cf 15be 67f8 26be
000002e0: 3775 42be 3377 1dbc f2ee 5dbc 6c0a 5cbd
000002f0: dbac 91bd a916 79bd 4e44 85bd 0dc4 aa3d
00000300: 41ff 4cbe 62d4 9a3d c72d 843e c87c 81be
00000310: 7136 afbe e36b 87be 6509 b5be 02bd da3d
00000320: c614 3dbe ab02 f4bd 379c 0b3f 569f 073c
00000330: ede2 9cbd ca2d 67be a614 9e3b 1777 77bc
00000340: 512d 82bc c3b2 75bd 88fb dfbd a290 c93d
00000350: 9cde 95bc 5815 c93d e25f 0abd 7a5f b2bd
00000360: c5bf 913d 8ae4 c1bd be13 ac3c 5e5d 4b3e
00000370: 4a91 cb3d ff36 21be b447 debd 38f8 983d
00000380: 0194 8abe fc83 a03e 9d43 a43c d0c2 4b3e
00000390: dce2 10be 44cb ca3d 69b1 9fbd 1992 483d
000003a0: 5928 e73d d5ea ccbe 4d85 c1bd cb6d 343c
000003b0: 28ea 263e 7e25 dfbd a8c2 4fbc 171b 77bd
000003c0: cd82 403c 97fd edbb 2194 44bd 1ce0 d0be
000003d0: 2643 a93d 8aa6 17bd c5f5 d6be 6e77 9fbd
000003e0: c3dc 69bd 3b4d 2a3d ec82 9c3d ecf5 83bc
000003f0: ecac e1bd cadb 63bd b1f0 223d 540e adbd
-0.18763359 -0.040086854 0.021199899 0.17328742 0.04083359 0.016443701 -0.24956886 -0.021910228
-0.1052835 -0.058317367 0.067998074 0.17493756 0.09075048 -0.23874499 0.0348516 0.0015268569
-0.08783785 -0.1261978 0.24421977 0.0027903588 -0.1437762 -0.08510353 -0.11194891 0.316488
-0.005463424 -0.08900979 -0.11186219 -0.107402556 -0.20318742 -0.077112816 0.07779703 0.1595778
-0.118752636 -0.14435902 0.19940321 0.094038025 0.24887145 -0.0015668997 0.16826381 0.09943877
-0.033194333 -0.1784232 0.1606451 -0.0012825745 0.031596623 0.013863647 -0.18420985 -0.09678368
0.03212104 -0.06105067 -0.26172668 0.20642021 0.15616173 -0.09261277 0.039922174 0.12360767
-0.024816936 0.1267116 0.16962335 0.039341576 0.029174078 -0.09874012 0.23557417 0.017203111
-0.16684037 0.22231758 0.046235833 0.12920529 -0.05114858 -0.087813735 -0.04278229 0.24448816
0.07303872 -0.09666075 0.22915329 -0.07033276 0.10114576 -0.009075201 0.06674282 0.19137517
-0.027189959 0.20603837 0.20860751 -0.120836385 -0.0065990025 -0.13434614 -0.19988838 -0.1786435
0.15255152 0.12774399 -0.04807545 0.07813716 0.080279835 -0.3794887 0.0777773 0.089801446
-0.13947445 0.12252487 -0.08204213 0.013101512 -0.24043818 0.1663326 -0.0068521136 0.18894051
-0.0016835646 0.25455144 -0.15642639 -0.18657483 0.0541142 0.020790981 -0.07732956 -0.0785363
-0.045119703 0.10808236 0.14814004 -0.1779386 0.12568612 0.03889831 0.020901885 0.11509973
-0.1908164 0.17832094 -0.09768998 0.004602643 -0.062710255 0.3817899 -0.0850575 0.0874103
0.03119358 -0.06469763 0.011912082 0.14261472 0.15616304 -0.099873915 0.16294919 0.03577164
-0.27870142 -0.3075134 0.15407144 -0.13823041 0.16118512 -0.22823167 0.1504733 0.104759514
-0.043043077 0.1288948 -0.27115104 -0.11076226 0.037478283 -0.03272091 -0.026884245 -0.055167194
0.25874722 0.12480233 0.24943212 0.010539354 -0.2183625 0.04576904 0.05758853 -0.20456234
0.09315501 -0.15233791 -0.081545025 0.11839995 0.28720313 -0.09818442 -0.16914274 0.2296173
0.05091474 0.03974954 0.18000677 -0.08330827 0.011297152 -0.23830946 0.09499391 0.046435546
0.086314864 -0.105278 -0.15795663 0.006083659 0.100763544 -0.085521124 -0.14630103 -0.16305695
-0.18990026 -0.009610939 -0.0135457385 -0.053720877 -0.07113048 -0.060812626 -0.06507169 0.08338175
-0.20019247 0.0756004 0.25816175 -0.25290513 -0.34221223 -0.264495 -0.3535873 0.10680582
-0.18464956 -0.119145714 0.5453524 0.008277735 -0.0766047 -0.22576061 0.004824239 -0.015104077
-0.01589075 -0.059984934 -0.10936648 0.0984204 -0.018294625 0.09818524 -0.033782847 -0.08709617
0.07116655 -0.094674185 0.021005508 0.19859836 0.09939821 -0.15743636 -0.1085352 0.07469219
-0.27066043 0.31350696 0.020051772 0.19898534 -0.1414904 0.09902051 -0.0779751 0.048967455
0.112869926 -0.40022913 -0.09449253 0.011012505 0.16300261 -0.10895823 -0.012680687 -0.06032857
0.011749935 -0.0072628963 -0.04799283 -0.40795982 0.08264761 -0.03702406 -0.41984382 -0.07786451
-0.0570953 0.04157756 0.07642159 -0.016108476 -0.1101931 -0.05562953 0.039780322 -0.084499985

bias f4 [40]
00000000: 289e 883e 38c1 033e a4d5 0d3e 775c 35bc
00000010: 73ef c4bd 7a7c fcbd 92ca 06be af47 c73b
00000020: 3603 76be d694 ab3d b1be 133e 3240 413e
00000030: 538f 1cbf e7d6 133e 38b9 64be e2de 22bc
00000040: 5069 263e f2eb 883d ebdc f1bd cd33 103e
00000050: 6231 fbbd 3c6c 293d 0043 f83d 8bfa 7c3d
00000060: a2b5 663e 22d1 66bd 3384 a0bd 02e6 26be
00000070: 1600 babc 68be 39be b7a1 51be 4f96 99bc
00000080: 93c4 1fbe ec4b d1bd 1504 6f3d c8fa e0bd
00000090: 2184 363e c8b2 efbd 5fb3 27be b6d4 4bbd
0.26683164 0.12866676 0.13851029 -0.011069409 -0.09615984 -0.123284295 -0.13163212 0.0060815434
-0.24024662 0.083779976 0.14428212 0.18872145 -0.61156195 0.14437447 -0.2233628 -0.009940835
0.16251111 0.06685628 -0.11809715 0.1408226 -0.122652784 0.041362986 0.12122154 0.061762374
0.22530225 -0.05635179 -0.07837715 -0.16298679 -0.02270512 -0.1813904 -0.20471846 -0.01874843
-0.15602331 -0.10219559 0.058353502 -0.10985333 0.1782384 -0.11704022 -0.16377018 -0.049763404

weight f4 [80, 40]
00000000: 29b0 45be 7253 8d3d 55d2 463e f2fe e4bc
00000010: 5b43 a3bd dc85 a73e c948 84bd a259 cb3d
00000020: d838 16be 70ed 09be 3a64 0bbd 539a f9bd
00000030: dedc 943d 7691 f9bd e528 31bb 9e81 16bd
00000040: bb28 c03d aec1 793e 2609 fbbc 0945 b1bd
00000050: 7168 2fbe 664b 343e f3b1 f63d cb1a 923c
00000060: 8ea8 a03d bee9 4c3d 954c 863d 47c2 143d
00000070: b8a7 523d 1fb0 bebb a40d 133d ec85 983d
00000080: f509 a4bd 6bab bcbd 7988 533d 7728 5a3e
00000090: 25e5 fa3d a154 0fbd 0bec 2cbc a738 843c
000000a0: 69e6 833d 4f2e 133d 909c ab3b 22a6 da3d
000000b0: 3d9a cf3d ea37 a6bd c95e 0b3c f4fc 163d
000000c0: 77ab 7ebd efd1 fdbd cf44 0b3e 34c0 cc3d
000000d0: 43ce 8a3d 5f77 af3a 8ed7 47bd 230f 883c
000000e0: f388 743d 035b 64ba 0703 5a3d 4656 b9bd
000000f0: 34e9 083d e53e 2dbe 84eb bcbc 29ef 843e
00000100: f322 ba3d 2ead 9ebd 627a e03b 24e9 09bc
00000110: c493 aabd 4f9b 7abe 847e dc3d 45f8 823d
00000120: e876 503e 5d9f 8bbe c711 323e 20b5 97bd
00000130: 1792 083e 20e2 52bd aaf8 863d aaa0 463c
00000140: 2ae3 523d 9f9a 6fbe 66d5 413d 0792 dabc
00000150: 7131 6c3c caad 11bd 51f2 0d3e 8e10 fb3d
00000160: 9d78 cfbd 0da6 64bd c480 c33e caef eb3c
00000170: 76e5 423d c0d3 2dbe 0aea c83c e1d3 913e
00000180: 606c 89bd 63e6 2d3d 7a04 b8bb 64db c43b
00000190: 0498 2e3d ce5e f1bc 2119 f2bd d355 91bd
000001a0: 6612 513e 2d3f 02bc 05f5 a03d 3f16 99bd
000001b0: 34b9 3bbe 63b3 09bd 0d0e a83a fb5a c4bc
000001c0: c984 f63c 8d0c 833c 91f0 17bd d46a 063d
000001d0: 7d0b 1abd cafe 87bd 7688 4b3e 86e2 49be
000001e0: 0c07 783d 265f 20be e605 0c3d 8c83 f6bc
000001f0: 0329 633d a7dc 343e 5967 063e 1fc4 af3d
00000200: ee12 85bc fbcb 39bd b2d0 403e fb19 9f3d
00000210: 5e65 1f3d 3c4f c03c f31f e33c 9a6d d43d
00000220: 5834 23be 4f7d 29be 5671 1a3e 9284 e4bd
00000230: 9f58 fb3d 1a69 5dbc 70cc ba3d a690 233e
00000240: e36f c63d 412f 323d ac82 a7bd fcbe e53d
00000250: 6c5b b6bd 5aed 7fbc ad60 9dbc d9f2 01be
00000260: d992 8d3c d35d e53d 5a02 f6bc c03c e13a
00000270: 55fa 883d 64b7 ac3d 0fa9 ea3d a9e6 64bd
00000280: a3cc a9bd 4b02 c7bd 0ada 02bd d26f 153e
00000290: b149 6ebd 767f 7c3e 4e7f c3bd 788e 65be
000002a0: 9b21 18be e7cb 94bd 1cdb 5ebd f188 ad3c
000002b0: 75b4 20be 3aad 533d eb88 06be fe83 243c
000002c0: 4d84 c7bc 4f51 e3bc 421d f5bd ecb1 12bc
000002d0: 0406 f03c 31e2 dc3d 027e e0bd 6747 86bd
000002e0: 2ad3 4dbe cdd1 0ebd c631 14be 917f 6cbc
000002f0: 2c99 febc 85f3 7f3d 0abb 3b3e 2809 cebd
00000300: 3a29 e73c c45c d03b 2b6d 8d3e 4318 fc3c
00000310: ec2c 0abe 7f12 d13d 6ae7 c2bd d352 89bc
00000320: d013 d63d fd23 253e a743 b0bc eb97 f63d
00000330: 7931 a43e 2b38 b7bb 4c1f 0b3e 8f34 9b3d
00000340: 88a8 143d e320 6bbc 520f cdbd 6ec6 d4bd
00000350: 1820 97bd 7201 74bd 3e79 333e 81f6 253e
00000360: 29ed ff3d 4f23 24bd 03a5 9e3c e9dc 003e
00000370: bbf8 403e a08f dc3c 27f2 a0bd a116 ad3d
00000380: 335b 89bd dbe6 d8bd 5b06 abbc 8e9d f33d
00000390: 61f6 cf3d da81 0dbe f85c 05be 3457 2ebe
000003a0: 9067 73bc bb47 d03d f8fa 01be 7c90 8f3d
000003b0: 2d11 56be cf53 fe3d 11fe 30bd 28d3 15bd
000003c0: 22b4 ecbd d3cc 37be f178 593d 4528 dabd
000003d0: 4236 c4bd a4ad 68be 4e6d dd3d 694f 0ebd
000003e0: fab8 46b9 8a19 e93d 6d02 373e dafa 953d
000003f0: 8401 60be 6024 35be ae5c f4bd 70c8 cabd
-0.19305481 0.069006816 0.19416173 -0.027953599 -0.079718314 0.32719314 -0.06459195 0.099292055
-0.14670122 -0.13469481 -0.03403113 -0.12187638 0.072686896 -0.121859476 -0.0027032432 -0.036744706
0.09382769 0.24390289 -0.03064401 -0.086557455 -0.17129685 0.17606887 0.1204566 0.017835042
0.07844649 0.0500276 0.065575756 0.03631809 0.05142948 -0.005819335 0.03590168 0.074474186
-0.08009712 -0.09212383 0.051643822 0.21304499 0.12250737 -0.034992818 -0.010554324 0.016140295
0.064404316 0.035932835 0.0052371696 0.106762186 0.101368405 -0.081161335 0.008506485 0.03686233
-0.06217524 -0.12393557 0.13600467 0.09997597 0.067776226 0.0013387016 -0.048789553 0.01660878
0.059700917 -0.00087110716 0.053225543 -0.090496585 0.033425525 -0.16918524 -0.023061521 0.25963715
0.09088697 -0.07747875 0.0068505267 -0.008417401 -0.08328965 -0.24473308 0.107663184 0.0639501
0.20357859 -0.27270022 0.17389594 -0.07407594 0.13336979 -0.05148518 0.06590398 0.012123266
0.05148617 -0.23398827 0.047322653 -0.02668096 0.014416085 -0.03556613 0.13861968 0.12259017
-0.10130427 -0.05582242 0.38184178 0.028800864 0.047582112 -0.16975307 0.024525661 0.28481963
-0.06710124 0.042456042 -0.005615768 0.0060075987 0.042625442 -0.029464152 -0.11821199 -0.07096448
0.20417175 -0.007949633 0.07859234 -0.07474946 -0.18332368 -0.033618342 0.001282157 -0.023969164
0.030092614 0.015997196 -0.037094656 0.032816723 -0.037608612 -0.06640394 0.19876274 -0.19715318
0.060553595 -0.15661296 0.034185313 -0.030092023 0.055459034 0.17662297 0.13125362 0.08582329
-0.016244378 -0.045360547 0.18829611 0.07768627 0.03891503 0.023475282 0.027725196 0.10372467
-0.15937936 -0.16551708 0.15082297 -0.11158098 0.122727625 -0.013513828 0.091210246 0.15973148
0.096893094 0.043502096 -0.081792206 0.11218068 -0.08904156 -0.015620554 -0.019211138 -0.12690295
0.017281936 0.11199536 -0.030030418 0.0017184243 0.06688372 0.084334165 0.114580266 -0.055884037
-0.082909845 -0.09717234 -0.03194622 0.14593437 -0.058175746 0.24657997 -0.09545766 -0.22417629
-0.1485657 -0.07265454 -0.054408178 0.021183463 -0.15693839 0.051678874 -0.13138168 0.010041235
-0.024355078 -0.027748732 -0.11968471 -0.008953553 0.029299743 0.1078533 -0.10961534 -0.06556588
-0.20100084 -0.03486805 -0.14472112 -0.014434711 -0.031078897 0.062488098 0.18333068 -0.1006034
0.0282179 0.006358715 0.2762235 0.030773288 -0.13493699 0.10208606 -0.09516795 -0.016763126
0.10452998 0.1612701 -0.021516634 0.12040695 0.32068995 -0.0055914125 0.13586158 0.07578384
0.036293536 -0.0143511025 -0.10012688 -0.1038941 -0.07379168 -0.05957169 0.17526719 0.16207315
0.124964066 -0.040072735 0.019365793 0.1258427 0.18844883 0.026923954 -0.07858687 0.08451582
-0.06706848 -0.10590907 -0.020877054 0.118952855 0.10154415 -0.13819066 -0.13023746 -0.17025453
-0.014856234 0.101699315 -0.12693393 0.0700998 -0.2090499 0.12418329 -0.043211047 -0.036578327
-0.11557795 -0.17949228 0.053093854 -0.10652212 -0.09580661 -0.22722489 0.10811864 -0.0347437
-0.0001895166 0.11381824 0.17872019 0.07323237 -0.21875578 -0.17689657 -0.1193174 -0.09901512

bias f4 [80]
00000000: 549e 4dbd 47c4 49bd d5e2 813c 2293 c9bd
00000010: 670f 173d ee38 053e f6f2 25bd 978b a5bd
00000020: f301 063e dc53 c3bc a95a b53d d2b6 d239
00000030: 6821 db3d 5732 3a3e 4fc3 2b3d 885b ad3d
00000040: dea9 4e3d 7b26 2c3e 7b7e acbd e40a 4abe
00000050: 8f1d 8a3c 2db2 04bd b1d5 d23d dde5 03be
00000060: 77f2 213d 1849 cf3d a052 d83b 48e0 543e
00000070: e944 8dbd c1ec a53d d70c 083e f6bf edbd
00000080: 1a8d 92ba 5ab2 023e 63df 39be add2 3dbe
00000090: 38d5 12be f5a6 c63d 4097 6b3d 1d16 1cbb
000000a0: d131 dd3b c809 ccbd ac92 de3c 77ef ffbd
000000b0: 7faa 843d 117d 79be c6ea 85bc 3726 093e
000000c0: 5c17 bb3d 2d5d aabd b912 e9bd d6a9 36be
000000d0: 173d 133e 8e4c afbd 0ae1 03bd 0e39 b83d
000000e0: 0c2e bbbd e66d 96bd a2e9 91bd 1b06 5d3d
000000f0: 24e8 18bc 700e c93c e93b 6abd 9fb9 0ebe
00000100: 6931 843d 2d17 9ebc 22f1 a2be aeaf 82be
00000110: 62b5 1b3d 6dcc 1c3e f5d0 0d3e 6343 2cbd
00000120: 3a05 11be 87d4 c73d 8825 d03d c620 033e
00000130: eadc 59be eb68 6c3d b810 503c 0388 873d
-0.05019982 -0.04925945 0.015855232 -0.098425165 0.036879923 0.13009998 -0.04051491 -0.08083265
0.13086681 -0.023843698 0.08855183 0.00040190533 0.10699731 0.18183266 0.041934308 0.08464724
0.050454967 0.16811554 -0.08422562 -0.19730717 0.016859798 -0.032396484 0.10294665 -0.12880655
0.039537873 0.101213634 0.0066016465 0.20788682 -0.06897909 0.08101798 0.13286148 -0.11608879
-0.0011180968 0.12763348 -0.18151622 -0.18537398 -0.14339149 0.09699813 0.05751729 -0.0023816891
0.0067503233 -0.09962803 0.027169548 -0.12496846 0.06477832 -0.24364115 -0.0163473 0.13393484
0.09135315 -0.08318553 -0.11380524 -0.17838225 0.14378773 -0.085595235 -0.032197036 0.08995257
-0.09139642 -0.0734518 -0.0712464 0.0539609 -0.00933269 0.024543017 -0.05718604 -0.13937996
0.06454737 -0.01929816 -0.31824595 -0.25524658 0.038014777 0.15312357 0.13849242 -0.042056452
-0.1416215 0.09757333 0.101634085 0.12805471 -0.21275678 0.057717245 0.012699299 0.06617739

weight f4 [40, 80]
00000000: bf3f acbc 0970 1c3d 358c 85bd 760d ed3d
00000010: 6b45 d3bd 638c c83d d66c 80bc 97d8 f83c
00000020: dbfd 1d3c a36a 823d 6026 ce3c 1a77 8bbd
00000030: 75c6 f23c 639a ba3d 7274 a0bc 5c64 cb3d
00000040: b7ca 61bd 23d8 71bd 6514 a2bd 0064 80bd
00000050: 9163 1d3e a17a be3d 226a cabd e351 dfbd
00000060: c638 10be c4a7 373d 00f2 593d 8705 8abd
00000070: 58f3 03bc 2b1a 273d 2b42 363d d1c9 ccbd
00000080: 9920 06bd 60c8 9c39 5029 f0bd aefd b8bd
00000090: 34c2 82bd 6198 01bd fcd1 013d 4613 61be
000000a0: 07bc 2dbe 91ae 9138 45ea b6bc 14cc 32bc
000000b0: 7ba6 a5bd 7392 a83b 0565 58bc 0209 213d
000000c0: bc12 5ebe f8cf cc3d 2bfb a13d 0c69 debc
000000d0: ed79 7a3d 4ad3 54be c219 5c3d ecf7 6bbc
000000e0: 3a61 b3bd b219 bd3a f4bf 893d d007 85be
000000f0: 90ea b23d 39c5 f9bd 2c28 29bd c3b9 943d
00000100: 95e6 1c3c 119c d83c 03a9 223e ddd2 9b3d
00000110: e114 523e 41df 47be 408a c03d 47e4 b4bc
00000120: 79e4 2fbd 9fa4 aebb 07b6 f5bd d829 1bbd
00000130: eb16 acbc 10d6 a0bd 5080 89bd c835 4cbd
00000140: 3679 163d ebea f2bd a056 6fbd d8e2 a33b
00000150: 6937 8cbb 8c07 06bd af96 e5bd 4e83 4d3c
00000160: 18dd db3d a0ec 013e 9211 753c e4f5 1c3e
00000170: 862e 94bc 7796 79bd 4aff 87bd e2f0 083d
00000180: 04f9 bbbd dbd8 d5bc 9f25 d1bc 9d46 d0bb
00000190: 1190 093c 469d 8f3d a17d 4e3d 751a a8bc
000001a0: 0e2e f9bd b262 fc3d 58a1 edbd a145 c13c
000001b0: 6a20 a23d f528 fcbd 9e91 7c3d 089b fcbc
000001c0: ed20 bb3d ab81 db3d dec8 893d 0589 c5bd
000001d0: 3337 053e e288 c4bd 526b d03d c6e4 193e
000001e0: 69a5 e5bd 6004 a13c dcbc 893d a928 213e
000001f0: 07df 86bd 77bd a03b 52cc 043e 89f0 bfbc
00000200: 2dba ec3c dabb cc3d c3db 84bd a565 01be
00000210: e914 333e f958 db3c e983 07bd 8a77 80bc
00000220: 1038 08be f798 0939 4a12 b8bd 8d67 22be
00000230: e745 1a3e 36e8 2a3e 08b5 4c3d d2ec 4ebb
00000240: 87ed 96bd eb92 963d 0ce0 c03d a6a6 84bd
00000250: 08cc 943e b52c f63d bec9 443e 4304 5ebd
00000260: 1af4 14be 40c5 01be fb70 8dbc 5eab d6bb
00000270: 532e a8bd 0fcf 46bd 5c55 963d 9397 9bbd
00000280: 6a9b c13c a851 b5bd 91c0 843d 415d edbc
00000290: be1f 2b3d 3cb0 d73c 87f0 f5bc d4d6 8f3d
000002a0: 1cad 3f3e bd3f eebd f25b 8d3d 721c 0fbe
000002b0: da52 c33d 320b 773c 0c0b 75bd 40eb e5bd
000002c0: 95af cc3d fa59 3c3e 5ace b4bd e25c bd3d
000002d0: 8c28 e53d 42b7 fdbd e987 b4bd 7b09 bd3d
000002e0: cae8 e73b 1557 d43c 4834 c53d 1f7e c83d
000002f0: f488 ef3d 80aa 043e cd99 3dbd 864e 533d
00000300: 9c46 423d ab25 92bd eba0 97bd 1179 ba3d
00000310: ded7 98bd e719 4b3e b813 4a3d ed00 7f3b
00000320: da1b ba3d 78fc 8bbd 973d 503d 6a77 943d
00000330: b3da 123d faed 54be 4552 f0bd a3ea 0fbe
00000340: 2708 adbd 89c6 4cbe c971 643d 0996 ff3d
00000350: 1403 0b3e 33b2 31bd fd08 c8bd 62f7 a83d
00000360: ff44 ca3d 189f fa3c b82a 2c3d 660b 913d
00000370: 2f40 24bd 53a4 b73d 9142 91bd 7683 8b3d
00000380: 118a 93bd 38e4 063e 9c93 99bd 5fc5 d5bb
00000390: 752d 4dbd 31bb dfbd ab30 c83d 12a8 d33d
000003a0: 9a98 bb3d fb82 21bd 58d1 8bbd 3c40 623d
000003b0: ccf4 af3c 26e5 85bc 192a f2bd 0535 5bbd
000003c0: b462 e3bb fb06 223d c0a3 61bd f45e 30be
000003d0: d6e9 b1bd c986 04be 2a07 873d 639b 013c
000003e0: fe0e 7ebd 28af b03d 24d6 103e 0534 1cbe
000003f0: a10b 92bc c4d7 b8bd 02d5 33bd e287 ce3d
-0.02102649 0.038192783 -0.06520883 0.11574833 -0.10315975 0.09792402 -0.015676897 0.030376716
0.009643043 0.063679956 0.025164783 -0.06809826 0.029635647 0.09111478 -0.019586775 0.099312514
-0.055124965 -0.059044015 -0.07914046 -0.062690735 0.15370013 0.09300733 -0.098835245 -0.109042905
-0.14084157 0.04483773 0.053209305 -0.067393355 -0.008053623 0.04079644 0.044496696 -0.09999431
-0.03274593 0.0002990393 -0.1172663 -0.090327606 -0.063846976 -0.03163946 0.031694397 -0.21980008
-0.16966258 6.946654e-05 -0.022328505 -0.010912914 -0.08088394 0.005144411 -0.013207679 0.03931523
-0.21686834 0.100006044 0.079092346 -0.0271497 0.061151434 -0.20783725 0.053735502 -0.014402371
-0.08758779 0.0014427213 0.06726065 -0.25982523 0.087361455 -0.1219582 -0.041298077 0.07261994
0.009576459 0.026441606 0.15884785 0.07608578 0.20515777 -0.19518758 0.09401369 -0.022081507
-0.042942498 -0.005329683 -0.119976096 -0.037881702 -0.021007022 -0.07853329 -0.06713927 -0.049855977
0.03673669 -0.11861213 -0.05843222 0.005001407 -0.0042790663 -0.03272204 -0.11210381 0.0125435125
0.1073553 0.12687922 0.014957802 0.15328175 -0.01808859 -0.06093451 -0.066404894 0.03343285
-0.09178355 -0.026104381 -0.025530634 -0.006356074 0.0083961645 0.070124194 0.050412778 -0.020520428
-0.12166987 0.12323512 -0.116030395 0.023592772 0.07916339 -0.123124994 0.06166231 -0.030835643
0.091371395 0.107180916 0.067277655 -0.09645275 0.13009338 -0.09596421 0.1017672 0.15028676
-0.1121319 0.019655406 0.06725475 0.15738167 -0.06585508 0.0049053985 0.12968567 -0.023430126
0.02889737 0.09996767 -0.06487229 -0.1263643 0.17488445 0.026775824 -0.033084784 -0.015682
-0.13302636 0.00013122322 -0.08987863 -0.15859814 0.15065728 0.16690144 0.049977332 -0.0031574261
-0.073695235 0.07352241 0.094177336 -0.06477098 0.29061913 0.12020246 0.19217584 -0.054203283
-0.14546242 -0.12672901 -0.017265787 -0.0065511903 -0.08211961 -0.04853731 0.073405 -0.0759727
0.023633678 -0.08853465 0.064820416 -0.028975131 0.04177832 0.026329152 -0.030021919 0.07023397
0.1871838 -0.11633251 0.06902303 -0.13975695 0.09537287 0.015078353 -0.05982499 -0.11226511
0.09994427 0.18393698 -0.08828421 0.092462316 0.11189374 -0.12388469 -0.08814985 0.09230324
0.007077311 0.02592043 0.096291125 0.09789681 0.116960436 0.12955666 -0.046289254 0.051588558
0.04743062 -0.07136091 -0.074037395 0.09105123 -0.074630484 0.198341 0.04933521 0.0038910464
0.090873435 -0.06835264 0.050839987 0.07249339 0.0358531 -0.20793906 -0.11734442 -0.1405435
-0.084488206 -0.1999761 0.055772576 0.12479789 0.13575393 -0.043382835 -0.097673394 0.082503095
0.09876441 0.03059344 0.042032927 0.07082252 -0.040100273 0.08966889 -0.07092775 0.068121836
-0.072040685 0.13172996 -0.074988574 -0.0065237726 -0.05009218 -0.10924376 0.09774908 0.10334791
0.09159966 -0.039431553 -0.068270385 0.05523704 0.021479033 -0.016344618 -0.11824436 -0.05351736
-0.0069392566 0.03955744 -0.055087805 -0.17223722 -0.08687179 -0.12942041 0.06593163 0.007910582
-0.062026016 0.086271584 0.14144188 -0.15254219 -0.01782781 -0.09025529 -0.043904312 0.10084511

bias f4 [40]
00000000: 01ae 1e3d 3f5c 1e3e 674b a4bc fd72 b6bd
00000010: 7110 c6bd 6af0 ab3c 5982 1bbc 4662 2f3e
00000020: 1714 d1bc 587a a03c 29a1 ae3c 48c0 e53c
00000030: 3f9a 923d 279b aa3c 57e9 e5bc cf4f d4bd
00000040: 6aa1 443d 9a1d 5ebc 5d75 c93c 8741 61bd
00000050: 37fc 20bd 2bce b5bd 2caf b43d e081 af3c
00000060: a861 36bd d2f5 0b3e 18d9 c9bc 9b2f 9abd
00000070: a73d 0d3d 3e16 793b 7627 6dbc 076c 5cbd
00000080: 31a5 a0bc 8dde 933b 32b0 3fbe 3513 733d
00000090: b626 5abd 6950 083e 8326 2f3e 56c4 03bd
0.03874016 0.15464877 -0.020055486 -0.08908651 -0.09671105 0.020988662 -0.0094915265 0.17127332
-0.025522275 0.019589588 0.021317082 0.028045788 0.07158326 0.020825936 -0.028065367 -0.10366785
0.0480055 -0.013556862 0.024592096 -0.054994132 -0.03930303 -0.08877214 0.08822474 0.021424234
-0.044526726 0.13667992 -0.024639651 -0.07528611 0.034482624 0.0038007642 -0.01447474 -0.05381396
-0.01961002 0.004512614 -0.18719557 0.05934449 -0.053259574 0.13311924 0.17104535 -0.032169662

weight f4 [20, 40]
00000000: a7af 173e 707a fd3d 1c4e ec3d ac68 5dbe
00000010: a9bd 113e ddda c53c 0c86 8abd 97d7 c2bd
00000020: 1008 cf3c 3562 393e 7f46 ecbd 8590 943e
00000030: 87cb 8abd b740 ae3d c71c 543c 5a18 e9bd
00000040: 8f6a 953d de4b dc3d 06f8 02be 1fbe ddbd
00000050: 7d98 583d 351a 78bd 16b0 9fbb a609 e5bd
00000060: a25d a83b eb30 e9bc f387 72be e3f9 853c
00000070: 8e16 fbbd 32b8 40be 2915 f5bd 2613 a2bb
00000080: 7c1b ab3d 50df 513d 617a b63d 5584 453c
00000090: 5fa5 923d f258 ffbc f8df 7bbd 15c6 edbd
000000a0: f75d 2c3d 109b c1bd c74b d0bd f3e9 38bd
000000b0: 89a9 d4bd 296e c33d 2d1a 08be 738e 74bd
000000c0: 74d0 303e 58ce f1bd 7b9b 103e 4089 5fbe
000000d0: 8db6 513d 0317 25be 08e5 6dbc 9043 003e
000000e0: ee5f 933d 496a 4f3d cacc cf3d 4792 c83c
000000f0: 0aaa a23d a1c6 6abd 3094 e83d 465f eb3d
00000100: 11e0 d73d 5f15 01be c0f9 fa3d b386 f63d
00000110: 5a70 abbd dcde 4b3e f891 073e 5195 24bd
00000120: f9f8 2bbe f0fc 7bbd 6bd5 2cbe 0022 bc3d
00000130: 69f7 efbb fc79 3b3e 03b0 cebc c9e2 a4bd
00000140: c285 2c3e 3f7a 123e d25d dfbd f338 cbbd
00000150: 17f5 2a3e f23c c1bd ae43 143d b67e 923c
00000160: 96ae 52bd 9baf f33c 4416 07be d9b4 1a3e
00000170: 4296 d13b cf17 223d 660a 093e 4dac ef3d
00000180: ada2 163d f671 cb3d df2f 24be abc1 0f3e
00000190: b9c3 393e 8606 efbd a27b 8c3d 527d 203d
000001a0: 0b58 c3bd 4012 f73d c6ab 9d3a 5372 12be
000001b0: e3ac 85bd 093b 29be 4791 ab3d 4a3d b7bb
000001c0: 39b9 a53d 2842 dcbc 66d0 853c 1470 79bd
000001d0: 9dab eabd 03b5 3ebe 01e6 35be fe4c 1abe
000001e0: 07b9 d4bc d5aa efbc f5ae 3e3d 8da5 a8bd
000001f0: 332e 90bc b2ef 0cbc 5b80 ae3d d582 1d3e
00000200: 3911 00bd faeb c1bb ca6e 3cbe 9832 093e
00000210: 6332 13be 2ae0 013d a89e e13d 4d5d 84bd
00000220: 02c4 9cbd c891 e5bd 9899 31be a9c5 b43d
00000230: fa10 d43d 1ad2 083b 00aa 21be 0961 87bd
00000240: 01de cdbd b121 f53d 3a3d 92be e4bb 19bd
00000250: cb06 dc3d 8abd febd d079 1cbc 9228 34bd
00000260: 4427 113e c4fe 89bd 9d30 3c3e ecbe e43c
00000270: e698 bb3d f48f 1abd 550b 35bd 3831 23be
00000280: 1e2a c93d c454 61bd 445b 043e e665 a33d
00000290: 9366 473b a47e 893d 5310 cd3a 00ca 973d
000002a0: caae 49bd ca46 aa3d 029d 803d 963a 50be
000002b0: 37ad cc3d 568e 233e 9fde bcbd f7a6 d7bd
000002c0: 7f77 1e3d c444 103e 06ee 353e ac15 293e
000002d0: d490 9d3d 64c5 1dbd e8e0 afbd ad9a 383c
000002e0: 90f9 91bd 7f97 70be a8c4 7f3c be7d 4abc
000002f0: ecc2 bbbd 0897 6b3d 938f dd3d e124 0e3e
00000300: fd48 90bd 7b68 cebc 5a32 18be 3a79 053e
00000310: 8858 0c3e cd01 0f3e fdec 883d 8714 c13c
00000320: c6f6 0e3e 3256 9fbc 381c e3bc 4693 afbd
00000330: 973b 62be b952 683d d33d b63d e4ba 2cbc
00000340: 77f1 293d a244 dcbd 37a7 57be 7354 f73d
00000350: af8b 92bc ba74 b63c 651c 03be a1e9 66bc
00000360: 7f9e d33c fe4a 3cbc 764f 41bb fda0 57bd
00000370: e791 fd3c c927 eabc a574 2abe 3e73 66bc
00000380: b91e 163d e3fa 0c3e 83b0 75be fa3f cbbd
00000390: 949b 02be 8069 f3bd 1af7 1fbe 8e86 73bd
000003a0: 9e10 743b 5125 1c3e 96d6 f33d 7bf8 b4bc
000003b0: 1da9 22be 4a00 25be f8e3 f0bd 6733 0abe
000003c0: 93ae d13c 55d8 55bc 3f93 e23c b8bd cd3c
000003d0: 37ed bfbd 31d2 9fbc 5418 8ebb f167 533c
000003e0: 1626 923c 3df4 1abe 27c6 77bc 9f32 62be
000003f0: 6fc7 0a3e 0c55 3d3e bab0 5cbe f4bd 49bd
0.148131 0.12376869 0.11538336 -0.2162196 0.14232506 0.024152214 -0.06763849 -0.09513777
0.0252724 0.1810387 -0.115368836 0.2901651 -0.06777101 0.08508437 0.012946314 -0.11381598
0.07295715 0.10756658 -0.12789926 -0.10827278 0.0528798 -0.060571868 -0.004873286 -0.11183481
0.005138115 -0.028465709 -0.23684673 0.016354507 -0.12260161 -0.18820265 -0.119669266 -0.0049461303
0.083548516 0.051238358 0.08910061 0.012055476 0.07160448 -0.031170342 -0.06149289 -0.11610047
0.0420818 -0.09453404 -0.101707034 -0.045144986 -0.10383899 0.09542496 -0.13291235 -0.059706163
0.17267019 -0.11806935 0.14121811 -0.218297 0.051199485 -0.1612206 -0.014519937 0.12525773
0.071960315 0.05063847 0.10146482 0.024483813 0.079425886 -0.057318334 0.113563895 0.11492781
0.10540784 -0.12605809 0.12254667 0.120374106 -0.08371039 0.19909233 0.13239276 -0.04018146
-0.16794194 -0.061520517 -0.16878287 0.091861725 -0.0073231948 0.18308252 -0.025230413 -0.08051068
0.168479 0.14304446 -0.10906567 -0.099229716 0.16695057 -0.094354525 0.036197357 0.017882686
-0.05143603 0.029746821 -0.13192087 0.1510805 0.006396086 0.039573487 0.13382873 0.11702786
0.036776233 0.09933846 -0.16033886 0.14038722 0.18141069 -0.11671166 0.068595186 0.039182015
-0.09538277 0.12064028 0.0012029342 -0.14301424 -0.06527116 -0.16526426 0.08377319 -0.005592023
0.08091969 -0.026887015 0.016334724 -0.0608979 -0.11458514 -0.18623738 -0.17763521 -0.15068433
-0.025967134 -0.029256264 0.04655357 -0.08234701 -0.017600155 -0.00860207 0.085205756 0.1538194
-0.031266425 -0.005918023 -0.18401638 0.13398206 -0.1437469 0.03170792 0.110165894 -0.06463108
-0.07654573 -0.11209446 -0.17343748 0.08826763 0.103548005 0.0020877183 -0.15787506 -0.06610305
-0.100521095 0.11969317 -0.28562337 -0.037532702 0.10743483 -0.124384955 -0.009550527 -0.043984003
0.14175135 -0.06738046 0.1837792 0.02792307 0.091600224 -0.03773494 -0.04420026 -0.15936744
0.09822486 -0.05501248 0.1292544 0.0797842 0.003042613 0.06713608 0.0015645124 0.07411575
-0.049238957 0.08314283 0.06279947 -0.20334849 0.099939756 0.15972266 -0.09222149 -0.10529893
0.03868818 0.14088732 0.1776658 0.16512173 0.076936394 -0.038518324 -0.08587819 0.011267346
-0.071276784 -0.23495291 0.015610851 -0.012359081 -0.09168038 0.05751708 0.108184 0.13881256
-0.070451714 -0.025196305 -0.14862958 0.13034526 0.13705647 0.1396553 0.06685827 0.023569359
0.13961324 -0.01945028 -0.027723417 -0.08573012 -0.22093044 0.056719515 0.08898511 -0.010542605
0.041490044 -0.10755278 -0.21059881 0.12076654 -0.017888872 0.022272456 -0.128038 -0.014093787
0.025832413 -0.011492489 -0.0029496825 -0.052643765 0.03095336 -0.028583424 -0.16646059 -0.014065562
0.036650393 0.1376758 -0.23993115 -0.09924312 -0.12754661 -0.11885357 -0.15621606 -0.059454493
0.003724135 0.1524861 0.119061634 -0.022091141 -0.15884824 -0.16113392 -0.117622316 -0.13496171
0.025595939 -0.013052066 0.027658103 0.025114879 -0.09371417 -0.019509407 -0.004336396 0.0129031995
0.017840426 -0.15132232 -0.015122927 -0.22089623 0.1355264 0.18489474 -0.21551791 -0.04925342

bias f4 [20]
00000000: 1b03 c7be 3edc 8d3e 19b7 da3d d72b aabf
00000010: 8970 4a3f e170 4fbf 9ac4 7abf 2f4e 12bf
00000020: 7441 83bf 4ef8 1cbf 8ba6 21bf a113 36bf
00000030: 97ea 24bf 3676 31bf 6ba9 29bf 5b4a 273e
00000040: e14f d9be 48fc 4e3f c299 07bf 2940 1bbf
-0.38869557 0.27707094 0.10679454 -1.3294629 0.79077965 -0.81031615 -0.9795624 -0.5715055
-1.025435 -0.6131638 -0.6314475 -0.711237 -0.64420456 -0.69321 -0.66274136 0.16336958
-0.42443755 0.808537 -0.5296899 -0.60644776

weight f4 [1, 20]
00000000: 9d9d 86bf 4a28 953f 23a7 90bf 764a 9abf
00000010: e3b0 673f 93d5 94bf 02b2 813f a08f 89bf
00000020: 8549 9dbf 3ccf 9c3f 8cf7 a7bf 6c77 903f
00000030: 6209 9a3f 78ee adbf ac46 97bf 6890 923f
00000040: f19f 893f f798 923f 3161 7b3f 6ec1 84bf
-1.051685 1.165292 -1.1301006 -1.2053974 0.9050428 -1.1627678 1.0132449 -1.0746956
-1.2288061 1.2250743 -1.312242 1.1286445 1.2034113 -1.35884 -1.1818442 1.1450319
1.0751935 1.1452931 0.9819518 -1.037153

weight f4 [20]
00000000: a08c 443f b187 863f bd62 c73f bc6c 983f
00000010: e0d8 9b3f 5f49 5d3f ce69 4d3f 360d 6b3f
00000020: 43cc 7c3f 9c1f ad3f 243e 743f 9257 963f
00000030: 72b3 623f 3781 de3f 7ab3 813f f5eb 623f
00000040: 07c9 843f 91b2 543f ab32 803f f16e 863f
0.76777077 1.051016 1.5577008 1.1908183 1.217556 0.8644008 0.8023957 0.91817033
0.9874918 1.3525271 0.9540732 1.1745474 0.8855506 1.7383183 1.0132897 0.8864129
1.0373849 0.8308497 1.0015463 1.0502607

bias f4 [20]
00000000: 8b54 15be 208d 90be 0db1 73be ef0a 493f
00000010: 83ea 113f a23f 45bf 283b d93d 8240 97bd
00000020: 527a 513e 23f4 e4bd ca3e fbbb de88 25bf
00000030: 46f7 c5bd f750 f3be 1134 833d 3d88 5abd
00000040: 8b77 8bbd 8301 90be 6090 3cbe 8e52 09be
-0.14583032 -0.2823267 -0.23798008 0.7853231 0.5699846 -0.7705022 0.10606986 -0.07385351
0.20456818 -0.11179378 -0.007667397 -0.6466197 -0.09666304 -0.4752271 0.06406415 -0.053352583
-0.068099104 -0.28126153 -0.1841445 -0.13410398

running_mean f4 [20]
00000000: 97d6 84c1 a665 a2c2 1662 2d40 8c4b d1c0
00000010: d09f f240 e4fc 6a41 6ae5 db40 af90 02c1
00000020: 5ddd 2742 4597 8d3f 29c2 5f41 0b52 0ec1
00000030: c992 60c1 f8a5 8bc0 1e03 19c2 200d 1441
00000040: 6c9a 70bf e55a ea41 3c46 33c0 2687 b0c2
-16.60478 -81.19853 2.7091117 -6.540472 7.5820084 14.686741 6.8717546 -8.160323
41.966175 1.1061789 13.984902 -8.89503 -14.035836 -4.36401 -38.253044 9.253204
-0.9398563 29.294382 -2.8011618 -88.26396

running_var f4 [20]
00000000: 3784 8743 ecf9 8045 655d 6c43 ccf3 2942
00000010: c8a9 9f43 1d1d 2f42 a8c3 7442 b952 8044
00000020: 2193 0745 be1a 8343 2d6f 9844 3c33 b042
00000030: 73d3 1243 ad58 4844 d5d3 2045 bf57 1043
00000040: f15b b044 faf9 1a44 0b35 6f43 874d 0045
271.03293 4127.24 236.36482 42.488083 319.32642 43.77843 61.19107 1026.5851
2169.1956 262.20892 1219.4742 88.10007 146.82597 801.38556 2573.2395 144.34276
1410.8732 619.9059 239.2072 2052.8455

weight f4 [40]
00000000: 4bb0 853f 6fc3 583f ca00 3d3f 881b 353f
00000010: 125f ea3f 30c5 543f 1163 293f 8be6 483f
00000020: 6e8b 453f 44ff 3e3f bc28 ee3f bd2c e63f
00000030: 3cd7 3840 caca bd3f 7b36 5e3f 94c4 973f
00000040: b92d 483f 5655 b33f ee63 1340 ffb0 633f
00000050: 81df 883f 40a4 3a3f 5123 523f 2d81 c03f
00000060: c9b4 d03f 9198 583f d5ba 623f 8c97 cb3f
00000070: 9b0c 623f 43e4 5e3f 4062 8d3f 40c1 553f
00000080: e302 773f 7d6e bf3f 5a65 4e3f 25a3 673f
00000090: 8ad3 933f f510 a63f aa50 983f ad80 823f
1.0444425 0.8467321 0.7382933 0.70745134 1.8310263 0.83113384 0.6616679 0.7847678
0.7716588 0.74608254 1.8606181 1.7982403 2.8881369 1.4827511 0.8680188 1.1856866
0.7819477 1.4010417 2.3029742 0.8894195 1.0693208 0.72906876 0.8208514 1.5039421
1.6305171 0.846078 0.88566333 1.5905623 0.88300484 0.8706705 1.1045609 0.83498
0.9648878 1.4955593 0.806234 0.90483314 1.1548932 1.2973925 1.1899617 1.0195519

bias f4 [40]
00000000: 5694 c2be 33f8 863f 8e6a 03bf 0cea 7cbe
00000010: 8aae 12bf 2cf3 54bf e780 1e3f be2a d53c
00000020: 4872 053f 8079 763e 8929 a23f 5a3d 3b3f
00000030: c8d7 bdbe b406 d4be afae 63bf d0bb 473e
00000040: 8867 9f3e 9b9e b43f 6d3e eabe 957c ab3d
00000050: fc37 9abf e7c0 e03e 50d3 81bf 68fb c13f
00000060: b04c b93c 4277 583f bfd5 7e3f 1ce0 28bf
00000070: 4b38 88be ee9b 7bbf 18eb 643f ca24 46be
00000080: 0540 503e 1abd 503e 7307 2bbf e1e6 96be
00000090: 6ea1 ac3e 2f4b b4bf eb8f 303f 3aa1 5cbf
-0.38003796 1.0544494 -0.51334465 -0.24698657 -0.57297575 -0.8318355 0.6191544 0.026021358
0.52127504 0.24069786 1.2668926 0.7314049 -0.3707869 -0.41411364 -0.8893842 0.19505239
0.31133676 1.4110903 -0.45750752 0.083733715 -1.2048335 0.43897173 -1.0142612 1.5154848
0.022619575 0.84556973 0.995449 -0.65966964 -0.26605448 -0.98284805 0.89421225 -0.19349971
0.20336922 0.20384637 -0.6680824 -0.29473022 0.3371691 -1.4085444 0.689696 -0.8618351

running_mean f4 [40]
00000000: f96c dcbd d0db e83e 53da c53e a2ac f13e
00000010: 7796 063e 4182 3dbe 9a6c 52be b8fb 163f
00000020: d8c2 db3e 013c 85be c467 b33d 9520 763e
00000030: b990 c0be ff3c c63e 92d2 e03d d728 413d
00000040: 30a6 f73d a142 91be eae2 e6bd 39d9 d43e
00000050: 7b97 9d3d 56ab db3e 97eb 793d cbc1 f3be
00000060: 127d a4bd 7c64 d3bd 8d77 933e 8efa 8c3d
00000070: d3b9 6e3d cf7d c2bc e6db 943d 0118 eb3e
00000080: 001a 013e 8676 0dbe 8b83 53be f283 e5be
00000090: dfff 063e 9c80 623d 92c2 0b3e 15e9 f7bc
-0.107629724 0.45480204 0.3864313 0.4720202 0.13143335 -0.18506719 -0.2054924 0.5897784
0.4292209 -0.26022342 0.08760026 0.24035867 -0.37610415 0.3871841 0.10977663 0.04715809
0.120922446 -0.28371146 -0.11273749 0.41571978 0.07694908 0.42904156 0.06101569 -0.4760879
-0.08031668 -0.103219 0.28802148 0.06883727 0.058282685 -0.02374163 0.07268505 0.4591675
0.12607574 -0.13814744 -0.20655648 -0.4482723 0.13183545 0.055298433 0.13648441 -0.03026251

running_var f4 [40]
00000000: 5997 9d3c 0076 f93c 6622 e63c 9114 463d
00000010: 8d0c 743c 2f19 183c 197c 133d 2348 d73b
00000020: 5de7 b23c 5f0f 313d 98bb 393d a020 f23d
00000030: edfa 953d af33 8c3c 3aff 133d b891 2a3c
00000040: 294e bb3c b7c7 bc3c 6fc2 ed3d bf30 203d
00000050: a616 1a3d d2a0 5b3d 7a93 fd3c 6433 a23c
00000060: 7b85 ef3c 05d5 043d 04b8 0c3d f6b5 9d3d
00000070: f146 ac3c 1769 893c c737 f13c 5163 ec3c
00000080: 196f 9a3c 4f6f 153d d0bb a23c 495e e33c
00000090: 9887 9e3c 4250 fb3c e6b6 e63c e262 083d
0.019237207 0.030451775 0.028092574 0.048359457 0.01489557 0.009283348 0.03600702 0.0065698787
0.021838838 0.04322755 0.04534492 0.11822629 0.07323251 0.017114488 0.036132075 0.010410719
0.022864418 0.02304445 0.11609351 0.039108988 0.037619255 0.053620167 0.030954111 0.019799896
0.029238453 0.032429714 0.03435518 0.07700722 0.021029921 0.016773744 0.029445542 0.028855952
0.018851804 0.036483105 0.019864947 0.02775492 0.019351766 0.030677918 0.028163385 0.033297427

weight f4 [80]
00000000: 8ff5 393f eaa7 a03f eb2e 7b3f c5e1 803f
00000010: 0716 803f 2e33 8f3f 6704 5b3f af24 803f
00000020: b2ad 803f d088 553f f10c 993f ac44 603f
00000030: 9414 9d3f dbbf 8d3f 5d7e b43f 1dc7 4e3f
00000040: b3f9 5b3f 8ea4 933f e076 8f3f 3710 b03f
00000050: bb0c 6b3f c08e 8b3f 2641 853f 4115 9e3f
00000060: 1efe 393f d7ee 443f dbbc 8c3f ff0f fa3f
00000070: b6b6 bf3f 07e5 813f 3d90 6d3f 3648 823f
00000080: 47cf 723f c4f1 523f fdb7 953f b6c4 a63f
00000090: 7156 803f 962f 753f c5e6 5d3f 09b5 a03f
000000a0: 14fe af3f a034 783f 45c2 493f 9c51 a23f
000000b0: 1a46 503f 4ae8 bd3f ca9b 863f 7f4a 9b3f
000000c0: 419f dd3f b1d2 923f 267a 753f fa8f 823f
000000d0: 4c82 683f 3ff6 6f3f f65c 983f 800e 8a3f
000000e0: 455f 393f 034e 393f 1fcf 733f d1d8 983f
000000f0: 6b4f b83f a886 ab3f 9569 7d3f 983c 5b3f
00000100: 80de 873f 6f37 713f 9989 9a3f ea5e a43f
00000110: 6652 b73f 63d7 813f f93a 933f 1207 723f
00000120: ac54 8e3f 1917 7c3f 5e52 733f 3a1e 8c3f
00000130: 6bbf 943f 4553 3f3f b828 973f 0c4e 913f
0.7264032 1.2551243 0.98118466 1.0068899 1.0006722 1.1187494 0.8555359 1.0011195
1.0053008 0.83411884 1.1957074 0.87604785 1.2271905 1.1074175 1.4101063 0.8077257
0.85927886 1.1534593 1.1208153 1.3754948 0.918163 1.0902939 1.0410507 1.2350236
0.7265338 0.7692694 1.0995134 1.9536132 1.4977634 1.0148019 0.92798215 1.0178287
0.9484753 0.82400155 1.1696774 1.3028781 1.002638 0.95775735 0.8668025 1.2555248
1.3749413 0.969553 0.78812057 1.2681155 0.81356966 1.4836514 1.0516293 1.2132109
1.7314225 1.1470548 0.9588951 1.0200188 0.9082382 0.93735117 1.190337 1.0785675
0.72410995 0.7238466 0.95237917 1.1941167 1.4399236 1.3400469 0.9898923 0.85639334
1.0614777 0.9422521 1.2073241 1.2841465 1.4322021 1.0143856 1.1502372 0.9454204
1.111959 0.98472744 0.9504756 1.0946724 1.1620916 0.74736434 1.1809301 1.1351943

bias f4 [80]
00000000: fe26 e0bd 705f 23be 75a6 80bf 2376 b0be
00000010: 1df7 48bf 82c5 69bf 7233 a33a c99c 4c3f
00000020: f889 683f 15c1 68be e934 28bf 61ed 9abe
00000030: a7de 983e 4399 583f 6d8c 39bf 2465 9a3e
00000040: ae3e 033c c231 0cbf c216 a0bd e166 593f
00000050: 8f3c 7dbe 8601 9d3f 5a53 cabe 3004 663f
00000060: 3249 a3be 683c c63e c09c ccbe e256 f73e
00000070: 725b 96bc 4170 a33e 0afb 863e a486 c43d
00000080: b0f8 3c3f 936a 833d 8684 4f3e d4c6 88bf
00000090: 7863 8dbf 297e 03bf bef1 42bf f5b0 9dbf
000000a0: 0376 3cbf a75f 00bf b40a 9a3e 5c69 553f
000000b0: 5c28 f0be 20e9 10bf a4cf 9bbf cdc6 3cbf
000000c0: e807 2f3f e504 9fbf f31a df3e 928c 1f3f
000000d0: 45fd b63d dc6a 55bf 15b7 2d3f 06d2 3abf
000000e0: 1f06 4a3f 4716 403f 2515 703f 3576 64bf
000000f0: b9ed 57bf 417e 523f 231d 5fbf 6955 843e
00000100: 1dbf 1c3f 8e9a dd3e 9f28 513f aa51 423f
00000110: 5af7 7e3f cbce 913d 7b53 743f 207d 943e
00000120: 9606 8cbf c3e8 ed3d f90d e6bc 1889 48bf
00000130: 940c 45bf c0f6 803d 4595 28bf 5125 81bf
-0.10944937 -0.15954375 -1.0050799 -0.3446513 -0.78502065 -0.91317 0.0012451245 0.79926735
0.90835524 -0.22729905 -0.65705734 -0.3025923 0.2985737 0.8460886 -0.724799 0.3015529
0.0080105495 -0.54763424 -0.07816841 0.84922606 -0.24730133 1.226609 -0.39516717 0.8985014
-0.3189178 0.3871796 -0.3996334 0.48308474 -0.018354151 0.3192158 0.26363403 0.09595993
0.73816967 0.06416812 0.20265397 -1.0685678 -1.104598 -0.5136438 -0.7615012 -1.2319628
-0.7361757 -0.50145954 0.3008629 0.8336389 -0.46905792 -0.5660572 -1.2172742 -0.73740846
0.6837144 -1.2423369 0.43575248 0.6232387 0.08935026 -0.8336618 0.67857486 -0.7297672
0.7891559 0.7503399 0.93782264 -0.8924287 -0.8434711 0.822239 -0.87153834 0.25846413
0.61229116 0.43281978 0.8170261 0.7590586 0.9959618 0.07119521 0.9543988 0.29001713
-1.093951 0.116166614 -0.028082835 -0.7833419 -0.7697232 0.06297064 -0.6585277 -1.0089513

running_mean f4 [80]
00000000: 378c a73e b1ba b63e 2c1e 923e ea03 b33e
00000010: 8080 1bbf 775e ea3e f9a7 8bbe a694 b4bd
00000020: c5a2 d73d 6766 0b3e 7972 d83e 0d9c 6f3f
00000030: 6848 1abe 2427 05be 1291 d4bc 2d0f 0e3f
00000040: caa8 143f e4af 1fbe f055 e1be 1095 23bf
00000050: 2a9a af3e 8d08 c6be fce5 1a3f 40c2 97be
00000060: fd2c 02bf a4d6 48be 2b5c 8f3e 2c44 153f
00000070: 6056 1cbf c92e 3438 a6ad 1dbe b50a bf3e
00000080: c04b 97be 6ab2 76be 5640 32bf c0c6 27bf
00000090: f993 3e3e 4fa2 ee3e cd01 223e 0edd dd3d
000000a0: 08de 5abe 88d9 cdbd 4fed 17bf 1035 54be
000000b0: 450d a7be f7ee 48bf fe4b 00bf 7bfb 773f
000000c0: db55 20be 9699 febe 3380 833d 8155 6fbe
000000d0: 7204 cf3e d393 49be f5e1 02bf 81c8 42be
000000e0: b8a2 573f 751c 503d 0702 9abe 8fd7 ddbe
000000f0: 09c4 73bf 9ff7 0cbf ce00 8abe 4840 7dbd
00000100: 22b0 06be 99a7 983c 870e 2cbf b89e 82bf
00000110: e44b 8f3e f0fa 24bd e521 7bbc ce8b 123e
00000120: e889 bbbe 21db f43e 1eaa a53d a070 9b3e
00000130: 7434 1ebf 70c6 cbbe fe4b 83be 8223 52bf
0.32724163 0.3568931 0.28538644 0.34963924 -0.6074295 0.45775196 -0.2727659 -0.08817415
0.10529093 0.13613282 0.42274836 0.9359749 -0.15066683 -0.13003212 -0.025948081 0.55491906
0.5807005 -0.1559444 -0.44010878 -0.63899326 0.34297305 -0.386784 0.6050718 -0.29640388
-0.50849897 -0.19613129 0.28000006 0.5830715 -0.610693 4.2958916e-05 -0.15398273 0.37312856
-0.2954998 -0.24091497 -0.6962942 -0.65537643 0.18611135 0.46608207 0.15821 0.108331785
-0.2137376 -0.100512564 -0.5934648 -0.20723367 -0.3262731 -0.7848963 -0.50115955 0.96868104
-0.15657751 -0.49726552 0.064209364 -0.23372461 0.4043308 -0.19685297 -0.51126033 -0.19021799
0.84232664 0.05080839 -0.30079672 -0.4332852 -0.95221 -0.5506534 -0.2695374 -0.06182888
-0.13153127 0.018634604 -0.67209667 -1.0204687 0.27987587 -0.040278375 -0.015327905 0.14311144
-0.36628652 0.47823432 0.08089088 0.30359364 -0.6179879 -0.39799833 -0.25643915 -0.8208543

running_var f4 [80]
00000000: 30a8 bb3c fac3 853c 6dea 033d 4ff7 563b
00000010: 98d7 5a3c c6da 0c3d a049 9b3c 62a4 db3c
00000020: 5a1f 923b 492a 323c 688e 6f3c 590e 2f3b
00000030: 5fb6 053d 9f15 4c3d aa0a 613d 28d9 1b3d
00000040: 07e3 273d 0407 303d b717 4c3c 31bb 603d
00000050: 7466 013d 1b2f 833d 961b 723c 9ea3 093d
00000060: b284 af3c 6ec0 c03d 0366 0a3c 3b1d 613d
00000070: ba57 4b3d 1dfd 003c 5a31 9a3c 4976 803c
00000080: 58b2 a43c 1448 5c3d 96e0 c43b d388 c73d
00000090: b635 f33b c108 9d3b cdee 003c 1d42 743c
000000a0: ffb1 733d 7fcc b73c 9657 023d e74d 823d
000000b0: da21 a63c 93ce fc3b d850 853c 44b4 c93c
000000c0: d62f d13d 61ee e83c 912c bf3c 5828 953c
000000d0: 2737 443c 9e92 9e3c 0725 9a3c e6cd c33c
000000e0: f709 be3b 95e3 5a3c 7141 703d 3f53 4e3d
000000f0: 4e3a 203d 77f7 323d 34a7 133d 3b66 8a3c
00000100: 4f25 2c3d 9f7d d83c 9913 463d af11 073d
00000110: 1231 2e3d 3198 753b c635 be3d b5d4 063d
00000120: 94f7 3f3d 859b 063d a60d e73c 658d 2d3d
00000130: de29 3e3d 803e 893c a70e cd3d 401d bd3c
0.022907346 0.0163288 0.032205988 0.0032801216 0.013357066 0.034388326 0.018956006 0.026811782
0.004459304 0.010874339 0.014621355 0.0026711433 0.032644626 0.049825307 0.05494181 0.038048893
0.040987995 0.04297544 0.012456826 0.05486602 0.031591848 0.06405469 0.014777085 0.033603303
0.021425579 0.09411703 0.008447173 0.054959517 0.04964421 0.007872847 0.01882236 0.015681403
0.020104572 0.053779677 0.006008218 0.09742894 0.0074221743 0.0047923033 0.007869435 0.014908341
0.059495922 0.022436379 0.03182181 0.06362515 0.020279814 0.0077150553 0.0162739 0.02462209
0.10214202 0.02843398 0.02333668 0.018207714 0.01197604 0.019357022 0.018816484 0.023901891
0.0057995277 0.013359924 0.05865616 0.05037236 0.039118104 0.043693032 0.03604813 0.01689445
0.042027768 0.026427088 0.048358534 0.03297585 0.042527266 0.0037474746 0.092876 0.032917697
0.04686697 0.03286316 0.02820475 0.042371172 0.046426646 0.016753435 0.1001256 0.023085237
